bnn/src/training/hcnv_weights_cifar10-w1a1.npz (npz, 751042 bytes, 35 tensors)

arr_24 f8 [128, 128]
0	0x3fedb9a90b8e6cba	0.9289136148176091
1	0x3fe8b0851a85d0e0	0.7715478437444538
2	0x3fefffdc3fa459df	0.9999829524047604
3	0x3fed96ccc1aa68f0	0.9246581823856825
4	0xbfec690b387478c8	-0.8878227331768125
5	0x3fefce006aa623c4	0.9938966830242113
6	0xbfefed9bfc2294dd	-0.9977550434602126
7	0x3fefdbc539709f14	0.995577442347868
8	0x3fd0d622cea5670d	0.26306982212337077
9	0xbf7ca88fe3899a38	-0.006996690812775479
10	0xbfeef106767a8cf6	-0.96692202701925
11	0xbfab678475115e0a	-0.05352415017176433
12	0x3fefffbe6b0a0f81	0.9999687281237898
13	0x3fef9c298f349dcc	0.9878127858145773
14	0x3fefeca03bf0c90d	0.9976349993433203
15	0xbfefe4b13cf079fb	-0.9966665449354076
16	0xbfebc6b5519a1109	-0.8680063813958735
17	0x3fef64eab6e39a1b	0.981068951802459
18	0x3fefe7b592bbb451	0.9970348230250555
19	0xbf7f4bae8b262419	-0.007640535174126683
20	0x3fef4f7b37393f49	0.9784523085199704
21	0xbfeff32ca1247e0c	-0.9984343669238469
22	0x3fefe2afb6dc362c	0.996421677731353
23	0xbfef9b8ef1f5ad96	-0.987739059998989
24	0x3fefaf660adb6a11	0.9901609623005375
25	0xbfecdbf4a63f1c64	-0.9018500563623886
26	0x3f530ac393aeda45	0.0011622342997107554
27	0x3fd6b1df294d1aac	0.3546064284641186
28	0x3fef8941ae48dee7	0.9855049518582434
29	0xbfedca8ec066e6e3	-0.9309762723780434
30	0x3fefec71e650bfac	0.9976129053447855
31	0x3fe0f30dd1f48775	0.5296696758925764
32	0x3fefa7f91f5f1184	0.989254533073606
33	0xbfef978b266bf358	-0.9872489691184496
34	0x3fc387b1ee4c6410	0.15257858405746605
35	0xbff0000000000000	-1.0
36	0xbfeff6ae3435a13a	-0.9988623637882832
37	0x3f67c9642bd08bea	0.0029036480396071778
38	0xbfefeecd233d2e30	-0.997900551630158
39	0xbfeff2e940da1472	-0.9984022394788907
40	0xbfe1382634fbf492	-0.538104156002776
41	0x3fefc26b55cf04af	0.9924828220320218
42	0x3fefe40bbcb51168	0.9965876279534713
43	0x3fc85212f4a3b30a	0.19000470109258344
44	0x3fefce61d32a8559	0.9939431309068524
45	0xbfcde818a9ef70a0	-0.2336455182802455
46	0x3fdd83a8809ed05b	0.4611607795770902
47	0xbfe140a93a330b1b	-0.5391431938845445
48	0x3fefedeb3832ea5c	0.9977928254732649
49	0x3fefdd5b64da92c8	0.9957711190987419
50	0x3fef67a29c725119	0.9814007812115363
51	0x3fe9f149185815e3	0.8107037997694387
52	0xbfef5b29f7faf7bd	-0.9798784106603687
53	0xbfeff29bd0981bb3	-0.9983653139214453
54	0xbfeec50707845f9c	-0.9615512034242673
55	0x3ff0000000000000	1.0
56	0xbfef437f8c507d59	-0.9769895306125519
57	0xbfe683d8104ad8bf	-0.7035942381105754
58	0xbfe7815a4dbf9733	-0.73454013047442
59	0xbfe367a708c8af5e	-0.6064028903542569
60	0x3fefdc4b3ba9fadc	0.9956413426696957
61	0xbfea1bf22a20d618	-0.815911371499797
62	0xbfea3a83a50cdf65	-0.819642851222835
63	0xbfefd291d5918cc2	-0.9944543048153707
64	0xbfefffdcc36e3e97	-0.999983197880243
65	0x3fef9fabb961283a	0.9882410641378165
66	0xbfefec0f907f2715	-0.9975660154534319
67	0x3fefb8c138ca8229	0.9913030728531044
68	0xbfef33ff88935749	-0.9750974338046287
69	0xbfb0fd546ed7b47d	-0.06636550623052702
70	0xbfef9d878a95397b	-0.9879796702096394
71	0x3fefe452821af06f	0.9966213742368505
72	0x3fefff3b876d9390	0.9999063153342025
73	0xbff0000000000000	-1.0
74	0x3f76cfd1267b2f90	0.0055692834791435525
75	0xbfe89351de751d6a	-0.7679833741066606
76	0xbfa1702f0c602db4	-0.034059019337373014
77	0x3fef8e9fb0712f8e	0.9861601301322354
78	0x3fecc9d709274a8e	0.8996386698512013
79	0xbfefca1bab33e1f4	-0.9934213966180878
80	0xbfefe8a9a0d3311a	-0.9971511975395828
81	0xbfebfb9074f49957	-0.8744585308348104
82	0xbfe94f8263d0c9c4	-0.7909557294390699
83	0xbf43f2082380ec6e	-0.0006086864223172736
84	0xbfeeab10c835267a	-0.9583820257477804
85	0x3fefb2ea280b1734	0.9905901701065205
86	0xbfeeaca510241ac1	-0.9585748019461208
87	0x3fc00c7ecb18d356	0.1253813258823821
88	0x3fefb62075bd1f95	0.9909822749695986
89	0xbf64cab6a6ebdde7	-0.002538067571886893
90	0xbfefb422fad34974	-0.9907393359119809
91	0xbfd60fde82fe3724	-0.34471857826507546
92	0xbfd21786e63345c5	-0.2826859710740702
93	0x3fee4b0244a00dcf	0.9466563549362322
94	0xbfe34c8cb343e9d5	-0.6030944348597652
95	0xbfc0df8fef02ff88	-0.13182257814878207
96	0xbfedf5193995c33f	-0.9361692547518955
97	0xbfed145751ea41d9	-0.9087330436614663
98	0x3fe6b7a06c540176	0.7099153629097106
99	0xbfefb8e36d8652d6	-0.991319383540566
100	0x3f8593546fe3b38b	0.010534915604205405
101	0xbfeccc515310a7c5	-0.8999411222805455
102	0xbfefea69f9efa986	-0.9973649865690255
103	0xbfe64a941b17bbb3	-0.6966038254885148
104	0xbfef8334f229eab6	-0.9847664575348378
105	0xbfefb5d75308d7b5	-0.9909474012153995
106	0xbfefd4cc9ee16857	-0.994726476968263
107	0xbf6e9ac403f2fe78	-0.0037359074045467087
108	0xbfed07c42c7f8978	-0.9071980351548481
109	0xbfef85b30e033f61	-0.9850707315144797
110	0x3fcfee37d06bde32	0.2494573371584337
111	0xbfefcc051c600106	-0.9936547807883762
112	0xbfefcf70e91baab9	-0.9940723946468416
113	0xbff0000000000000	-1.0
114	0xbfecda240f14f6f8	-0.901628522354911
115	0xbfeee547de085d5c	-0.9654883705688166
116	0xbfefdb41212dde7d	-0.9955144546538147
117	0xbfe03ebfd5cc6969	-0.5076598335029249
118	0x3fc5630814fe6dce	0.16708470368472067
119	0xbfefa3da1a5c7e2f	-0.9887514605397366
120	0x3fefb530fc613fc8	0.990868084840252
121	0x3fce5b79dcf18b71	0.2371666268182611
122	0x3feed488433f60d2	0.9634438813618778
123	0xbf98663a5afd1ed6	-0.023827468684685403
124	0x3f6f0c68b1a936a7	0.0037900967411477918
125	0xbfefc391ab87971b	-0.9926231718243089
126	0xbf6571c4ffcc149f	-0.002617726100995712
127	0x3fe853438c9091fe	0.7601640458493077
128	0x3fe90469bcd50558	0.7817887008788302
129	0xbfefe96bc67e2312	-0.9972437741099347
130	0xbfe80b946a129b9e	-0.75141354291269
131	0xbfe6fb8e90a30295	-0.7182076287209208
132	0x3ff0000000000000	1.0
133	0xbfd3a0d84947a28c	-0.3066921916602403
134	0x3fec5361ef210057	0.8851785345541526
135	0xbf8d132c04c4af6d	-0.014196723838345549
136	0xbfef896944119281	-0.9855238275018366
137	0x3feff4266c08ba01	0.998553477291182
138	0x3fa6da2eafd92efe	0.044633349386087304
139	0xbfef09421656d345	-0.9698801456748717
140	0x3fe0e237f6122ebd	0.5276145750117035
141	0x3fefa836532a97ec	0.9892837166159985
142	0xbfdfe9a8acc6f0ff	-0.49863640663876646
143	0xbfe5350a60abe155	-0.6627246749986094
144	0xbfef7eaf9216bd61	-0.9842145779893309
145	0xbfeff3b3ed6575bd	-0.9984988819739368
146	0xbfec33cb3a57ea1f	-0.8813224925536963
147	0x3fef4e0533755e8d	0.978273964409668
148	0xbfe76d7baa16b062	-0.7321146318477185
149	0xbf6b04397d80b6f9	-0.0032979128700593133
150	0x3fd44f76b11b1507	0.31735007567870394
151	0x3fee67914f137d46	0.9501425308662099
152	0xbfcbb9fb554d04c2	-0.21661321320610766
153	0xbfefcc91a7228833	-0.993721796450933
154	0x3fefbd2d415f4a45	0.9918428684998807
155	0xbfed631a8a81f4e6	-0.9183476166942028
156	0xbf807431a5684f66	-0.008034122333846216
157	0x3f7016778abe7441	0.003927676163496819
158	0xbfef064bee5c1b23	-0.9695186286415701
159	0xbf845b6609b9c83c	-0.009939953967862285
160	0x3fefeb01d6fae337	0.9974374007061674
161	0x3feb2764e87e25e0	0.8485588589548421
162	0xbfe58a345f721740	-0.6731206764386357
163	0x3fefedb27ad93da1	0.9977657699000028
164	0x3fe6d6999ca25740	0.7136962947140333
165	0x3fef7b09e08032b3	0.9837693581372008
166	0xbf7d08bb34f1eaea	-0.00708840491926808
167	0x3fe0997f1ed76bbd	0.5187373735783393
168	0x3fec1cd6c8c13d98	0.8785203858368957
169	0x3fe2984cb7027e07	0.5810912680062196
170	0xbfefee8d73289272	-0.9978701829136993
171	0x3fd2fc7b823bdf93	0.2966603061499821
172	0xbf7695ca6cbb9c4e	-0.005513945314056091
173	0x3fe6a153e804881f	0.7071933299632781
174	0x3fef08ad6f0871f9	0.9698092621434277
175	0x3fe26ebdd8374860	0.5760182593314873
176	0xbf9c8f1128211d20	-0.027889507364560306
177	0xbf71cac6d0858c05	-0.004343773478782791
178	0xbf7b839505943908	-0.006717283359888755
179	0x3fed02b802e0effa	0.9065818840240347
180	0xbf9f33311a39c18d	-0.030468718743976764
181	0x3f34ac8278ee4527	0.00031545815812091194
182	0xbf48f76dc778fbc8	-0.0007619176894378904
183	0xbfeff27c325cc21f	-0.99835023723978
184	0x3f7efebda96c72d9	0.007567158571671861
185	0x3feddfa49d09189e	0.933550173482917
186	0x3fefc193a4a46875	0.9923799720447862
187	0x3fefe754ea50f1b8	0.9969887329567007
188	0x3f707d5987a9cb9b	0.0040257928145476475
189	0x3fe8a54e17f3395e	0.7701788394713664
190	0x3febd305cd27ebd6	0.8695096022560118
191	0xbfef25ed71eca593	-0.9733798241697279
192	0xbfecf2c9952c3b0f	-0.9046371377497467
193	0x3feed69bf0b784a1	0.9636974050046271
194	0xbfed8890d6f6a350	-0.9229206274513704
195	0xbfe6f7c2b32618f9	-0.7177442072868693
196	0xbfd3db173dfa214a	-0.31024724056671416
197	0x3f7963544f72d4ba	0.006198243462837977
198	0xbfdf40ff85923555	-0.4883421711354761
199	0x3fb5f5b03372b1be	0.08578015571646966
200	0x3fef48097c04ca53	0.9775435850372766
201	0xbfe3786e2baee175	-0.6084509709535683
202	0x3f5c3217bce139ff	0.0017209274115149718
203	0xbf50f0adca20babc	-0.0010339448131266157
204	0x3fefc7a6cbe02eeb	0.993121526903875
205	0xbfd6f190b7d3f5c5	-0.3584939761347779
206	0x3fd9d80b7f421ff6	0.4038113348728979
207	0xbfed5bbe0b3349be	-0.917449018359825
208	0x3fefdcbc5e8c9cca	0.9956952902474765
209	0x3f9dc19f9ef01766	0.029058927608296335
210	0x3fef9bf21d0614f8	0.9877863470907462
211	0xbfe62847bc6a5803	-0.6924170188892734
212	0xbfc317ce0ec6f789	-0.14916396829169923
213	0xbf75a02633cc0236	-0.005279683330400567
214	0x3fefab655e6f69fa	0.9896723598897659
215	0x3fefd140b2eaea15	0.9942935461506887
216	0xbf99a94b29952a22	-0.02505986634541036
217	0xbfef1bedd14f8821	-0.9721592987155
218	0xbfa2cf9d68e5de5c	-0.03674022584430922
219	0xbfbd838318f47bce	-0.11528796538594507
220	0x3fee395c455c8949	0.94450200602686
221	0xbfc39443a968c0ac	-0.15296216747220137
222	0x3fe1eb7817592843	0.5599937873860273
223	0x3fce78f978f8c751	0.23806684881997822
224	0x3f77c85acd75c87b	0.005806307504245929
225	0x3f678275f5e189c1	0.00286982573656866
226	0xbfd8f47b204a32b8	-0.38992193368248307
227	0x3fefdc69ea366825	0.9956559729064379
228	0xbfefea759f238696	-0.9973705394915722
229	0x3fefd46303f7e1ff	0.9946761205201823
230	0xbfb37f71b283479d	-0.07616339309904992
231	0x3f98e60248f4da69	0.024314914420040887
232	0xbf433f6f7b50b45e	-0.0005873960823287274
233	0xbfdc07295ed10c49	-0.43793710956032733
234	0xbfef0e4c17ef41bd	-0.9704952685806841
235	0x3fe85ebcc07d54e3	0.7615646133005182
236	0xbfef580a27d370dd	-0.9794970300531777
237	0x3f8da76a67863526	0.014479476246175137
238	0x3fc73e95a465d885	0.18159742858160058
239	0x3fefddb53edc4d40	0.9958139636750403
240	0xbfef282de7e0aca4	-0.9736547020778699
241	0x3fef0e503c08bc01	0.9704972431699163
242	0xbf555086bc6a1bda	-0.0013009372502510359
243	0x3fe838d7dfe1c93e	0.7569388745016921
244	0x3feeceffb2e5023c	0.9627684110674362
245	0x3fea0984192496b6	0.8136616221497295
246	0x3fea2114510d3bfd	0.8165380080262136
247	0xbf97993c8b07e2d8	-0.023045488343970216
248	0x3fe1a8654e5bc619	0.5518061190070426
249	0x3f805dbdf0787284	0.007991298581196966
250	0xbfefd0ad7f0fe494	-0.994223354499939
251	0x3fefd2250c7c5dbb	0.994402431856478
252	0xbfddb404dc2158fa	-0.46411248681160056
253	0x3fe0068da388fbf8	0.5007999605221576
254	0xbf85784385476a4a	-0.010483291153765912
255	0xbfed74c53f6f226b	-0.9205042113254199

arr_25 f8 [128]
0	0x3d3add1e8cb0be35	9.543920284995028e-14
1	0xbd3a978e73fdd8af	-9.447382400539173e-14
2	0x3d2263e1d8348685	3.2667495134525155e-14
3	0xbd4f75eb673cebeb	-2.235411729066961e-13
4	0xbd204b836b2eae35	-2.894568858368421e-14
5	0xbd36c9b17ad760f8	-8.095875748487027e-14
6	0xbd44625d2e73f9ed	-1.4483869631618022e-13
7	0xbd33a05b09a139b6	-6.972694110553132e-14
8	0x3d27e7ab0f8854e8	4.246372840686794e-14
9	0xbd481abcd8c59990	-1.7127237635573296e-13
10	0x3d084be342dad693	1.0789785278564768e-14
11	0xbd4888eb81fd87c4	-1.7433054867025884e-13
12	0xbd2558ba40e96132	-3.79191647038383e-14
13	0xbd505513197392c9	-2.3209626482436834e-13
14	0x3d2ef0db47221fc2	5.496198325737039e-14
15	0xbd525e8dabc541a0	-2.610441530859389e-13
16	0x3d3bc6ada377aa41	9.868048427793e-14
17	0xbd361120ae2c688b	-7.839739493248679e-14
18	0x3d2997bfe1ef4669	4.546189495163335e-14
19	0x3d4fc064d3eea637	2.256082503823447e-13
20	0xbd2976580d2c0a8a	-4.523009710509032e-14
21	0xbd4d7874615c9ddd	-2.094006804238247e-13
22	0x3d1be5ba5c3dbc39	2.4777846337157784e-14
23	0xbd345c6afad57055	-7.233682944195476e-14
24	0x3d2937764cbea595	4.479376667179266e-14
25	0xbd342ce9ab0fbeaa	-7.167756341854558e-14
26	0xbd4503b525d83cc6	-1.493168813236342e-13
27	0xbd2b9ed717cdc32c	-4.906381000762227e-14
28	0xbd3a7a7bc33f8de2	-9.407035495015418e-14
29	0x3d221515453c1571	3.2120716417836344e-14
30	0x3d3f8744bfacf24d	1.1201135227313814e-13
31	0xbd227dd69d174466	-3.284760196146038e-14
32	0x3d3c28a2fdce5d1f	1.0003993030185775e-13
33	0x3d4b1d38f03e916f	1.9265762362771012e-13
34	0xbd39c9db601c4c78	-9.161916968537082e-14
35	0x3d20af5cad305ef7	2.963852786567773e-14
36	0x3d42a372f3b22330	1.3243431437613866e-13
37	0xbd30f8b3de720ac6	-6.029486095125172e-14
38	0x3d374ed96853ad2a	8.280666774706466e-14
39	0xbcf5e18f21ef4a24	-4.858578046441224e-15
40	0xbd2d098fd6067983	-5.158069707131826e-14
41	0x3cf3eda23746c5ea	4.42496183440649e-15
42	0xbd436e1c8a014554	-1.3805932732559692e-13
43	0x3d42d6a8d4b1b916	1.3385569029457081e-13
44	0xbd420f4139a7eabc	-1.2832109780340788e-13
45	0x3d2237cf92ce3c6a	3.236168856381051e-14
46	0xbcf2e5b1c21fe374	-4.1960309951937816e-15
47	0xbd3528952490fd2c	-7.517018381653669e-14
48	0x3cf8ef2db62c69c7	5.536524850556538e-15
49	0x3d3fb358e1a7e211	1.1262306633444616e-13
50	0xbcfcae67645ba673	-6.3685201861123116e-15
51	0x3d4b59ad3c697775	1.9433556716807034e-13
52	0x3d271c88a31c62d7	4.105419989293813e-14
53	0x3d38cb22eda809c6	8.808421268559163e-14
54	0xbd14a2082d5086b0	-1.8325729619368815e-14
55	0x3d408a0d644fa53a	1.175185591028067e-13
56	0x3d344b0b9a84f441	7.209573669353651e-14
57	0x3d21e2ffa832f629	3.177318588970599e-14
58	0xbd3b033536a3a8af	-9.596778739711433e-14
59	0xbd158f535820dfe9	-1.9149007253065478e-14
60	0xbcd2ca9272702a5a	-1.043126535385418e-15
61	0xbd43273d0a975eb7	-1.3609220536226609e-13
62	0x3d336bd4aeefbe4c	6.899801277991827e-14
63	0x3d2119b4ff78778e	3.0376444576177305e-14
64	0xbd389059807633b0	-8.72683816380335e-14
65	0xbd42a7a0287f98d3	-1.3255023795113825e-13
66	0x3ce2297da8a14719	2.0163952340905324e-15
67	0xbd25f896a6298145	-3.902842266682078e-14
68	0xbd1561c09f0b8543	-1.8990893673028404e-14
69	0xbd31f5848624c9f5	-6.380337469289626e-14
70	0x3d41a639b411d486	1.254059468462574e-13
71	0x3d40b11ad20249c1	1.1860248247347562e-13
72	0x3d373366f49cdea8	8.242576302045913e-14
73	0xbd412b0d3025c027	-1.2198718468475716e-13
74	0x3d3a4e2a2494475b	9.345530766833459e-14
75	0xbd34a2abe474d69d	-7.331179350697511e-14
76	0x3d4269d016c41ce1	1.3083458892345061e-13
77	0xbd3424baec0e3c8f	-7.156400700401555e-14
78	0x3cfce04652c19893	6.411776231705152e-15
79	0x3ccd057051328ecc	8.055013621145088e-16
80	0xbd4360f5aba83dfa	-1.376942907063955e-13
81	0x3d1a4d58442918a7	2.336098255828196e-14
82	0xbd3e6746d4efa9c1	-1.0801466230681449e-13
83	0xbd0cb2fe6767542c	-1.2745002562545692e-14
84	0x3d06a4fe36e6cdc5	1.0056179890943045e-14
85	0xbd3ca3020c7faa44	-1.0173817348600597e-13
86	0x3d2a3e8f495ac81a	4.661937303593745e-14
87	0x3d335eab4fe892da	6.881535880099994e-14
88	0xbd170492c963f913	-2.04439707714008e-14
89	0x3cea66c5a9fd1a06	2.9311501685347464e-15
90	0x3d47e7332accc578	1.698419147495707e-13
91	0x3d30b6e89d4fb9e4	5.938178629902217e-14
92	0x3cf5d3aeed5be9cb	4.846542706493186e-15
93	0x3d2b05244e688dbf	4.7997313217095166e-14
94	0xbd311611f26b6a0d	-6.070241677757135e-14
95	0xbd34dc7e6765988c	-7.41142392625524e-14
96	0x3d411642cf4705a2	1.2141013126250536e-13
97	0x3d29353974416974	4.477823965904061e-14
98	0xbd34cff969317136	-7.394049624478758e-14
99	0x3d31efc7171944be	6.372371652863348e-14
100	0xbd26d3d4592b0144	-4.0549712793072075e-14
101	0xbd3581a0d6e7fe50	-7.64059410075616e-14
102	0xbd2285d86ca46341	-3.290316219308954e-14
103	0x3d14cc537be99ff7	1.8472466991833267e-14
104	0xbd2815b83613127d	-4.2783273972941975e-14
105	0x3d2c9befc7cfb843	5.082001932214868e-14
106	0xbd31efe4665fbf5a	-6.372530540898311e-14
107	0x3d220b449eb359cd	3.205261088891917e-14
108	0xbd2881b4e77303ea	-4.353258487463179e-14
109	0xbd3903223de04fd3	-8.886133157992802e-14
110	0xbd40c25fddfa6de0	-1.1908181332312768e-13
111	0x3d37893285ffbd5b	8.361641042290171e-14
112	0x3d4591a9b89edc82	1.5325693418044746e-13
113	0xbd491a7681553c99	-1.7837017726630413e-13
114	0xbd00702a94f80628	-7.300004933153148e-15
115	0x3d0ebc650fb96ae9	1.3649489127825326e-14
116	0x3d4a4baa95f5e720	1.8684127441649715e-13
117	0xbd3bf75dde652d40	-9.935617155026578e-14
118	0x3d4faeae442a2660	2.251166122294031e-13
119	0xbd32496c182b1aeb	-6.496778453796432e-14
120	0xbd5991a9b81128aa	-3.6335728675284864e-13
121	0xbd3fc9cd2244c723	-1.1293467972112599e-13
122	0x3d3e91c6ae056838	1.0860446004806159e-13
123	0xbd42d51392187b28	-1.338117519009804e-13
124	0xbd14ac5adb2183d3	-1.8361544597876765e-14
125	0xbd0f1ee0be36589a	-1.3820330127550104e-14
126	0x3d24414b8eb0ca63	3.598021287878607e-14
127	0xbd2c377b2d9115e0	-5.012296941416857e-14

arr_26 f8 [128]
0	0xbfc4873a1b9ce6de	-0.16037680004392646
1	0xbfa74a7951be9b7a	-0.04549006579264066
2	0xbf8761b1aaeaa19e	-0.011416805294474138
3	0x3f9a8d86d4839262	0.02593050643999318
4	0x3feba312d84f48f7	0.8636564469145743
5	0x3fcb3df777ac2960	0.2128285726869974
6	0xbfd8291f197fa717	-0.3775098561296643
7	0xbfd866734dec0944	-0.3812530766446296
8	0xbf92b433bfbdfa02	-0.018265541627892297
9	0x3fc9883dedab858d	0.1994702730653838
10	0x3fd53549ac019241	0.3313774280307236
11	0xbfaa71ae3c2a5801	-0.051648564190301734
12	0xbecbe9886a916916	-3.327398037583931e-06
13	0xbfb2d09dcedf9559	-0.07349573422069024
14	0x3f7b4460e96f34ad	0.006657007753301841
15	0x3fda232514e493d1	0.408395071414188
16	0xbfddc858fc22caa3	-0.46535324690482066
17	0xbfc842ad00056fa4	-0.1895347833732305
18	0xbfbc293fb9eeb83c	-0.1100044087349667
19	0x3fad8eaac235fc7b	0.05772908802736595
20	0xbfd10c8c26ede81a	-0.2663908367318314
21	0xbfb7e14f6ee80567	-0.09328171212839252
22	0xbfd87f7681365c7f	-0.3827797185744614
23	0xbfcc8cfe29fb1513	-0.22305275964587476
24	0xbfaf08b1c36e52f8	-0.06061320791846997
25	0x3fd4a36c27b5a572	0.32247451665769866
26	0x3fc2c9c7202208ca	0.1467827708148149
27	0xbfe20b263572fbd5	-0.5638609928063213
28	0x3fd5bb9e771ff456	0.339576355297884
29	0xbfe76ba6b45eb90c	-0.731891014371088
30	0xbfed246ec50ce453	-0.9106973503722976
31	0xbfc6d8800699a9bb	-0.1784820587375416
32	0x3fcdb64f5ed3227f	0.2321261609088374
33	0x3f9f375c753667a4	0.030484623579105766
34	0xbfde4b4432d2f0ae	-0.47334389651565345
35	0xbfd8a4da51bf618d	-0.3850618170086129
36	0x3fc0bcea9583a34a	0.13076526928423454
37	0xbfb0428e83d0f580	-0.06351557462854451
38	0x3f80689d0edd5787	0.008012034431583505
39	0xbf81e2dbe01deb2a	-0.008733480240825726
40	0x3fd5818b05ae0ae8	0.3360316806285213
41	0xbfabc4003f6c93c6	-0.05422974371166549
42	0x3fdf974e3fc61f4d	0.49360996463700674
43	0xbfd319c7c77b7ee1	-0.298448509985958
44	0xbfb1cb274033ae7b	-0.06950612370899904
45	0x3fd62c88819d7806	0.34646809251523825
46	0x3fd335b266888cbb	0.3001523972799977
47	0x3f9854dd7479e809	0.02376123450674331
48	0xbfa43f4a7f4e5c13	-0.03954537204770516
49	0x3fc49649f1dccce1	0.16083645162289087
50	0xbfe47293b78980d1	-0.6389864525517855
51	0x3fe0856c3bf91737	0.516286961684023
52	0x3fe920e824357772	0.7852669436649491
53	0xbf8216850de44779	-0.008832015501443401
54	0xbfbd504c8610e350	-0.11450651429266867
55	0x3fc6a34c9cedfd36	0.17685849821644134
56	0x3febeb2f67b0756e	0.872459127920292
57	0x3fb2c908444f343b	0.07338000934324011
58	0x3fe369cdbecbe61b	0.6066654898160694
59	0xbfdd4ae8a9b882d0	-0.45769707273761373
60	0xbf964cd7f71bc8ce	-0.021777510125453862
61	0x3fd1122555f8a3ed	0.26673253436689387
62	0x3fd17630407b6fe4	0.2728386525830031
63	0x3fdb2bc2e9a5b77a	0.42454598252412945
64	0xbfa4acc12a6a1330	-0.040380512645276645
65	0xbfe10345dc497fd1	-0.5316495230181265
66	0x3f8857b0718396c4	0.011886003936932517
67	0xbfca87065d185f50	-0.207245631653445
68	0x3fc6611815252a1b	0.17483807594756304
69	0x3fe3dbb24d69ec33	0.6205684196460254
70	0xbfa8692f296c8937	-0.04767749195731812
71	0xbfcac5f080c6b475	-0.2091656330862041
72	0xbfe05dc3308014c9	-0.5114456126472301
73	0x3fcb722cd1f79689	0.21442184688855928
74	0xbfdb1e446bbe5aa6	-0.42372236749489856
75	0x3fca6f7bf5f7a307	0.2065272284519539
76	0xbfe7b22f22fa0a15	-0.7405009921206466
77	0xbfcc3ad6d7eb1e9b	-0.2205456308640706
78	0x3fc790f00db07d73	0.18411064785412243
79	0x3fefa7e9168ff2b1	0.9892468872709143
80	0xbfb259c88ebd2e71	-0.07168248638952847
81	0x3fe12a0f00aa038e	0.5363841069193869
82	0xbfb4ca985eb61450	-0.08121635734831156
83	0xbfd5af42dbc80138	-0.3388220926572276
84	0x3fc97c7dbae4c186	0.19911166787779794
85	0x3fca7ef4db2acb01	0.2069994039680623
86	0x3fc4b7bc51e348da	0.16185716627530305
87	0xbfc087a94e5c7b37	-0.129140055906612
88	0x3fdf35f4a7a9f2c7	0.48766819356368923
89	0xbfe59c370ebddc8e	-0.6753192222521578
90	0x3fe608a8f38b99e8	0.6885571247810818
91	0x3fbb681aa7284317	0.10705725270259979
92	0x3fe09ea2262a6fe8	0.5193644280839154
93	0x3fdf25be74c1449e	0.48667870904780297
94	0x3f92aaa2a761fbc3	0.01822904726622788
95	0x3fd8c646f983ffe4	0.38710188261756984
96	0xbf9b522bbc980e78	-0.026680644403326487
97	0x3faff0d8f95cafec	0.06238439601870013
98	0xbfce6a7672a3c107	-0.23762398336067056
99	0x3fc5aafd57bde37b	0.1692806890894437
100	0xbfdededb90402172	-0.4823521527000799
101	0x3fa94b5fac9047e2	0.04940318089951724
102	0xbfc06303691a698f	-0.12802164680472258
103	0x3fa2ae12456deeab	0.036484309172889105
104	0x3fcbb46b393a286e	0.21644344610496397
105	0x3fc4d53468ad2c7f	0.16275649176745685
106	0x3fcfff71fd938ed9	0.24998307115230636
107	0x3fd4420d97da5910	0.3165315611780821
108	0xbfc19021808805ce	-0.13721102500862375
109	0x3fd1b266c880d204	0.27651376324072907
110	0xbfcba5cb0373a1a5	-0.21599710148372
111	0xbfc9a9700d26f743	-0.20048332826802992
112	0x3fe2df83d3c311bd	0.589784539792667
113	0x3fb9becfb60e489f	0.10056780047151158
114	0xbfae4c1d273774a5	-0.0591744528171401
115	0xbf90838b11b3579a	-0.01612679763351075
116	0x3fe037aace8c4a4e	0.5067953142300412
117	0xbfe33635f6534281	-0.6003675280608861
118	0xbfad7ab49fd94ca2	-0.05757679415969476
119	0x3febdfa2fcae0bb3	0.8710493979600556
120	0xbfddfa26e02ba2cc	-0.46839305774350914
121	0xbf90c3b873698939	-0.016371614498333662
122	0xbfcb18046b620300	-0.21167044871619822
123	0x3fe366cc74a91c20	0.606298663952547
124	0xbfb7042ec92bd782	-0.08990757380874295
125	0xbf9e1ae8d7f808c3	-0.029399526769346773
126	0xbfd4924ebbc6daf7	-0.32142990434242286
127	0x3fc3d4a1ad4339bc	0.1549264999398029

arr_27 f8 [128]
0	0x3fef1617b03e966a	0.9714468424105693
1	0x3fea10d889dd37c5	0.814556378618129
2	0x3fe972f4baba3fdd	0.7952827116987425
3	0x3fe71ee6befe937b	0.72252213767625
4	0x3ff897ec443026be	1.5370905555341063
5	0x3feccd94e16e55b5	0.9000954058598639
6	0x3ffcf0e920a1cf4a	1.8088160776796536
7	0x3ff001f913ccf309	1.0004816792927065
8	0x3fe55b806c6bd7fd	0.6674196355440923
9	0x3fefd65d39e0553b	0.9949175005337233
10	0x3ff3d040e0234aee	1.2383431201348531
11	0x3fe2671113b79d91	0.5750813851454258
12	0xbef0b4a72426762b	-1.593177354096955e-05
13	0x3fe44ebcda77c217	0.63461153668874
14	0x3fe6823ab6c2716c	0.7033971375963524
15	0x3ff2fb7e4c898235	1.1863997449619437
16	0x3ff724e482e4cd20	1.446506987861376
17	0x3fe623788e47ac52	0.6918299464135862
18	0x3feaed879c3deba3	0.8414953281020313
19	0x3fe539a261bf81fc	0.6632854375021107
20	0x3ff2678cf13e4b35	1.1502808974807526
21	0x3fe795b0cbddeb7f	0.7370227796339889
22	0x3ff3dd29c7c91227	1.2414949230307089
23	0x3fed88260a48cc09	0.9228697014681312
24	0x3fe80a88bcf5d973	0.7512859049445936
25	0x3ff4a6435621637d	1.2905915607900333
26	0x3ff976a98841b7d3	1.591470272305277
27	0x3ff5205a568784e2	1.3203986530355043
28	0x3ff90eaa4fd8fa81	1.5660803908391758
29	0x3ff7700ac434a54d	1.4648540176661584
30	0x3ff7c38aea3ed17d	1.4852399015627207
31	0x3fee7b11d52a62bb	0.9525231517210025
32	0x3ff8b366d994afcf	1.5437992572069452
33	0x3fe765554be8efd6	0.7311197741141722
34	0x3ff0b82fe6d1a123	1.0449675575601496
35	0x3ffe03d055a1a168	1.875931105134521
36	0x3febde32e0852583	0.8708738694341921
37	0x3feaf86ed7ea4847	0.8428262917607378
38	0x3fe4ed13239813fa	0.6539397902675994
39	0x3fe98e9d1346e772	0.7986588837149908
40	0x3ff5b63db8b1f235	1.3569924559261726
41	0x3ff3f3a663da8830	1.2469848537953219
42	0x3ffb0b45579caff8	1.6902516767831894
43	0x3fec944054d74806	0.8930970818566955
44	0x3feb66699212cb75	0.856251511859553
45	0x3ff3379a789efa4a	1.2010750495679923
46	0x3ff52986e8a284d1	1.3226384246157077
47	0x3fe2efe3cdce5f95	0.5917834300662316
48	0x3fe79752ebf78d79	0.7372221573572652
49	0x3ff52baf99047e50	1.3231655099151745
50	0x3ff4450f233d5521	1.2668601395174124
51	0x3ff129a4c173fa39	1.072666888881612
52	0x3ff690aef4155fa7	1.410323098612915
53	0x3feb91bb2fb66010	0.8615394527323605
54	0x3fe68ba435721446	0.7045460742816736
55	0x3fe9099cc0a55f3f	0.7824233782402884
56	0x3ff7517153860db4	1.4573834669725843
57	0x3feac7eba627e515	0.8369043584090458
58	0x3ff5e50351a61695	1.368411368313365
59	0x3ff0e29bf7b312c7	1.0553245235216069
60	0x3fe49b880f7d410b	0.6439857771420362
61	0x3fee9ed9383f7fa0	0.9568906878084711
62	0x3ffb69ce8aed5bd4	1.7133317400782646
63	0x3ff07781106e0863	1.0291758195676486
64	0x3fd6019ceaf55aff	0.34384844727667024
65	0x3ff419a3c6ebfee7	1.256259705580243
66	0x3fe0930a10823e31	0.5179491350590465
67	0x3ff0178ba0e118f4	1.0057483944270276
68	0x3feb61b96ee5d232	0.8556792417499024
69	0x3ff5695807c1736d	1.3382187178569567
70	0x3fe98d7224478475	0.7985163410741182
71	0x3fe9fc6b12dde741	0.8120627754680997
72	0x3ff6d563ca1d8d8e	1.4270971198210165
73	0x3fefe212567e457d	0.9963466348000761
74	0x3ff6178f828f2d3b	1.3807520961734798
75	0x3ff196b8da76e003	1.0992973836673634
76	0x3ffa92cf2c7cf940	1.660842107564875
77	0x3fee4525a5bfaac2	0.9459408032683643
78	0x3fe7ea62068cb954	0.7473611953662762
79	0x3ffadb969bab689d	1.6786104279367813
80	0x3feb5a3df1088e71	0.8547658641513874
81	0x3ff0ef55df5dde0f	1.0584315037975818
82	0x3fe3f32eba780f97	0.6234353677723331
83	0x3ff30525855e4dd9	1.1887564859106219
84	0x3feb33a791000500	0.8500554878266087
85	0x3fed438201171fa4	0.9144907017989579
86	0x3ff89b5df4db6c45	1.5379314007502825
87	0x3ff0ab0959066408	1.0417569615876818
88	0x3ff3df8033160c6e	1.242065619998154
89	0x3ff879fb306d0025	1.5297805682785193
90	0x3ff641bd73e7a6b3	1.3910498168501533
91	0x3fecbbad00c8346e	0.8979096427225508
92	0x3ff889fe4f7bae70	1.533689794999102
93	0x3ff1e14b4fcbf105	1.1175034634644032
94	0x3fe40da1170a71d7	0.6266637277618042
95	0x3fef664a052a1326	0.9812364674440672
96	0x3ff2fa916a4f0895	1.1861738350567397
97	0x3fe81c2e925d5161	0.7534401758844461
98	0x3ff901306f72092d	1.5627903321588505
99	0x3fe7c12fcf1ba0da	0.742332367427504
100	0x3ffc256d2f5db87d	1.7591373300779474
101	0x3ff5267ca075ff77	1.3218961971287777
102	0x3ffd684c97de3455	1.8379636700003819
103	0x3fe8f54bcc1254bd	0.7799433694623513
104	0x3fed9142694551fc	0.9239818626470533
105	0x3fec90fa17ecf96b	0.8926973788546041
106	0x3feeccd0ce8c3d7e	0.9625019106041888
107	0x3ff2944847e74634	1.1612017449118754
108	0x3ff10fd17a582975	1.0663618830754704
109	0x3ff05e6c76c7b35e	1.023052658066454
110	0x3fe976aa79d98e94	0.7957355861548927
111	0x3feade831aa89e63	0.839662124698361
112	0x3ff60402c0fd8f6d	1.3759791887941575
113	0x3ff5e5358b660f5c	1.3684592671642895
114	0x3ff396711a526dc2	1.2242289570047977
115	0x3fe070aeb8a93d04	0.5137551886236058
116	0x3ff9f05e974672b3	1.6211839589297312
117	0x3ff3f483b78896bc	1.2471959275512026
118	0x3fe5294bdab0cedb	0.6612910529424555
119	0x3ff80e317afd6e54	1.5034651569648263
120	0x3ff011f523f6df33	1.0043841748101385
121	0x3fe92277fda5d623	0.7854576067026681
122	0x3fe979ca5d88617a	0.7961170031367566
123	0x3ff4d96eeeb649cd	1.3030843090715394
124	0x3fea9268e01979da	0.8303722741073287
125	0x3fe6bb9399963688	0.7103975295774072
126	0x3ff0d839aa2d7a1f	1.0527893683971639
127	0x3fede0db2e6e1c9e	0.933698263820492

arr_20 f8 [128]
0	0xbff34c47c926ad53	-1.20612314772264
1	0xbfbc871b82e13111	-0.11143657632164074
2	0xbfa223fb14272d61	-0.035430761537635254
3	0x3fd4183f1ee84923	0.31397989290521106
4	0xbf95644802fbeb83	-0.020890355283863748
5	0xbfe756be18794ea0	-0.7293386915211677
6	0xbfc69dec1511ceb1	-0.17669440296923747
7	0x3fe1d3306cdd5b70	0.5570299268973553
8	0x3fe20c36a6775701	0.5639909030239495
9	0xbfdcdce075289b37	-0.45098124924918487
10	0x3f96b7c250673be4	0.022185360104966537
11	0x3fdded6e8edabbad	0.4676166911185032
12	0x3fe8ea1aa81882bf	0.7785771639938374
13	0xbfe15c1e3af7b65a	-0.542494883700509
14	0x3fee59069b1aefaf	0.9483674077414345
15	0xbff0b66f586e17bf	-1.0445397810267278
16	0xbfe185c524c7b8fa	-0.5475793569910643
17	0x3fe5b12db027e391	0.6778782311003956
18	0x3fd6b6db73674348	0.35491071958408726
19	0x3fe4fed15b08d17c	0.6561056879059346
20	0x3fdd80c24bead9de	0.4609838239079219
21	0xbfda2998067eae64	-0.40878868707907245
22	0xbfe0126101400e85	-0.5022435211580648
23	0x3fdccb21e3465526	0.44989821619795334
24	0x3ff1195036e4c9e4	1.0686800140653014
25	0x3fc9caa3cc128284	0.20149657692401857
26	0xbff17132177965df	-1.0901356617890696
27	0x3fe1293a17626f8b	0.5362825829247283
28	0xbfe009aab4978ee8	-0.5011800315082526
29	0xbfe5885a6f82ce4b	-0.6728946855495875
30	0x3fd85a2b9b5bceae	0.3805035607503936
31	0xbfe2e3fb964457a6	-0.5903299269582376
32	0x3fa9702fa0cf6277	0.049684036617411324
33	0x3ff4e0770a0ef7da	1.3048010247143709
34	0xbfc46825c4616994	-0.15942833031551784
35	0x3fe50ba2b9483d5f	0.6576703661720947
36	0x3fe9c1ef7168385e	0.804923745630514
37	0xbfedbda3a625f9de	-0.929399322994694
38	0x3ff37abd7b225266	1.2174658594059564
39	0xbfe03d15c1fbf7d9	-0.5074566639666457
40	0xbfd24ec08feb4ece	-0.28605665258986057
41	0xbfe848b710cac8c5	-0.7588763549777232
42	0x3fe50ccdcde11112	0.6578129788472629
43	0xbff1c7f884384960	-1.1113209881628663
44	0xbfde99c2c91dbf40	-0.4781348194146524
45	0x3febe2ce763f1a83	0.8714363393308563
46	0xbff5ab03ac3f196e	-1.3542515495660967
47	0x3fc866e5e936c9c9	0.19064020049479627
48	0xbfe82d3f260971bc	-0.7555232756526986
49	0xbff0dae43c5a3d60	-1.0534403188247197
50	0xbfc0043d3f674492	-0.12512937160366683
51	0xbfb99f76d43a5a85	-0.10008948022218973
52	0xbff072249ed2c1ae	-1.0278669551881694
53	0xbff4dfb892b4b2cf	-1.3046193819711112
54	0xbfe3c17568b3481d	-0.6173655552795513
55	0xbfd9989929cfbb91	-0.3999388607325552
56	0x3fd7adbf4097e7b3	0.3699796801371306
57	0x3fd612b4a2b7d0d0	0.3448916996997129
58	0x3fe283a2abb8c92f	0.5785687784139436
59	0x3fe80ac75bfd9228	0.7513157650651623
60	0x3fc92ae6bcb9732b	0.19662174429950005
61	0xbfe87624ee86bdc4	-0.7644219073026126
62	0x3fb12bfb2d5d0b90	0.06707734925752917
63	0xbfd1f777a665f9cb	-0.2807292103751961
64	0xbfe4c5e34894044a	-0.6491562287848265
65	0x3fe4d3f3ee8799d3	0.6508731516631151
66	0xbfe5f756878c1f1a	-0.6864426276597186
67	0xbfefd350ce7a34f1	-0.9945453675042285
68	0xbfd6e0a0c71b36bb	-0.3574602074048518
69	0xbfc83714426fd695	-0.1891808819197435
70	0x3fc1ab350a27a9fd	0.1380373286804825
71	0xbfa24eecb041f8b9	-0.035758396640618036
72	0xbfc77f501d935fb8	-0.18357278293728796
73	0xbfb59820755c6c36	-0.08435252061137608
74	0xbfe32d5a00d32bf1	-0.5992860809432142
75	0xbfd8d9e348675b4b	-0.3882988173549406
76	0xbfd3e5fa8f015807	-0.3109117886100425
77	0xbfd59eafd37395f6	-0.33781047486840465
78	0xbfcde4bf660edc64	-0.23354332431128733
79	0x3ff18733d06b996c	1.0955083981912948
80	0xbff0443b2edf03b5	-1.0166580038933095
81	0x3fd585322ae42dd4	0.33625463665586364
82	0x3fc93994215cc6fb	0.19706966046356186
83	0xbfed5d9eaaf34041	-0.9176781977530554
84	0x3fe6202e9d505568	0.6914284775290698
85	0xbfea0163762b3db5	-0.8126694972979097
86	0x3ff211d017348a83	1.1293488413290624
87	0x3fc6d144b2286242	0.17826136302098133
88	0xbff508ea202607ae	-1.314676404552738
89	0xbfe25ab190c2df9f	-0.5735709979407949
90	0xbfe42b9a1106f8a6	-0.6303224880755536
91	0x3fb21d6635e107a5	0.07076109710126717
92	0x3fda61cb7e3e5886	0.4122189267012647
93	0x3fe861b58ce13aab	0.7619273902472136
94	0x3fe13fbaf0dc6dfe	0.5390295700375984
95	0xbfc7f12d49ce0c78	-0.18704763511422917
96	0xbfdcfbf352fbaeaf	-0.4528778372175379
97	0x3fea13b679ce2828	0.8149063471803446
98	0xbfe9e038164eb080	-0.8086204944315938
99	0x3fe985522d8f9e4b	0.7975245370734653
100	0x3ff684626253d2d4	1.4073203888812502
101	0xbfe785c9646f073e	-0.7350813829036509
102	0xbfe88574d7d32c8f	-0.7662910666780521
103	0xbfeef6e332956dea	-0.9676376331294112
104	0xbfc576ac0c94f02c	-0.16768408407540514
105	0xbfe4c62d0509c1c0	-0.6491913889313352
106	0x3fc864bbda25fc13	0.19057415153290033
107	0xbfe9ba7c22efcb9b	-0.804014271007293
108	0xbfb629fac89ef00f	-0.0865780582234381
109	0x3fee38774a1b798f	0.944392819157473
110	0xbfe64c4a4a8f19ff	-0.6968127685766489
111	0x3fdb18745a90b041	0.42336758465058116
112	0x3fe2329e33c2fa3f	0.5686789523095469
113	0xbfe5bcb237e3895e	-0.67928419986519
114	0xbfd09bcd2491f993	-0.2595093590861321
115	0xbfeeec120c31e2d8	-0.9663171995335587
116	0x3fe0ba31bbd742c6	0.5227287930266236
117	0xbff21d6eb1f8ace2	-1.1321856452948897
118	0x3ff9a568d49bf166	1.6028831772847183
119	0xbff41e674ed87f63	-1.257422740927688
120	0x3fe795678212e66a	0.7369878330711803
121	0xbfe36e314b8d0b85	-0.6072012401203756
122	0x3fda35a72d6a89a5	0.4095247214810576
123	0xbfe1f3ef10b5f430	-0.5610270811445215
124	0xbfe5ed6f5d882fc8	-0.6852337672039477
125	0x3fe8aea9df0bb992	0.7713212353099144
126	0x3fdede596e108a07	0.4823211264466924
127	0x3ff05af633595bfd	1.0222074514219905

arr_21 f8 [128]
0	0x3ff34296fdb85d5e	1.2037572775787662
1	0x3ff0fec31a3cfe18	1.0621977829868054
2	0x3fea82646ee8300f	0.8284170309211748
3	0x3fef48582a68481e	0.9775811031597674
4	0x3ff18b469bc7f5c7	1.0965028844069467
5	0x3ff1ed30cdd8607d	1.120407871325397
6	0x3ff0cabcff9efe0d	1.0494966492841542
7	0x3ff021efbd6fa694	1.008285274491219
8	0x3ff82ca6f716c707	1.5109014179146827
9	0x3ff441fd46075210	1.2661106811038998
10	0x3fefa4823ff9e35d	0.9888316392453863
11	0x3ff119c7c398c9bd	1.0687940254689317
12	0x3ff03d037c877aff	1.0148959030554463
13	0x3ff0e3f96f93030f	1.0556578024263137
14	0x3ff24ab000ab30af	1.1432342554208323
15	0x3ff36068e5389217	1.211037536043596
16	0x3ff1c7bbf849cd8f	1.1112632464181365
17	0x3ff0418730e7de1f	1.0159980688457677
18	0x3ff68d80ac6a94de	1.4095465407383965
19	0x3ff094528635a248	1.0362115137633214
20	0x3fec71a607d19a99	0.8888731148443468
21	0x3ff17982b714bb21	1.0921656753159328
22	0x3fede2484d8a5725	0.9338723673306261
23	0x3fefd43fd71d56d5	0.9946593476731446
24	0x3ff3c4a420ccb66d	1.2355080872761406
25	0x3ff08fe955bcc9f4	1.0351346348876378
26	0x3ff0fb9b8c618d3f	1.0614276393542494
27	0x3fed3ced8e96b7ea	0.9136874947487261
28	0x3fee46522171e05e	0.9460840848178227
29	0x3fed0c590589a299	0.9077572925717333
30	0x3ff61150f28c99c9	1.3792275881365745
31	0x3ff47771a7f2e0ea	1.2791611252305821
32	0x3ff49bfc3df420d8	1.2880823535979768
33	0x3ff3eee47942bc3b	1.2458233582253928
34	0x3ff3d3a79dc4c047	1.2391735232195218
35	0x3ff10d3fdb3a6c51	1.0657347262956771
36	0x3ff33d6c87eb0cb6	1.2024960812857848
37	0x3ff3c66e897ee43c	1.2359452601360905
38	0x3ff37f54fc625e8e	1.2185869082221958
39	0x3fee4e1288054006	0.9470303208017874
40	0x3feed2d2c4f22620	0.9632352682685372
41	0x3ff54f28412fb6c3	1.3318254991858545
42	0x3fee483be6f1da14	0.9463176260604222
43	0x3ff211515c323cc7	1.129227981702387
44	0x3ff1db8b9227e665	1.1160999020779852
45	0x3ff1245183862a80	1.0713668000850305
46	0x3ff5a6bf6cf352fa	1.353209901416618
47	0x3fec7159f81b29b7	0.8888368459532136
48	0x3ff2822f01998522	1.1567831099021721
49	0x3ff3efeb86895551	1.2460742240267175
50	0x3fee030f182c211b	0.9378734085194397
51	0x3fed7c778d10e019	0.9214437251275768
52	0x3ff0e4490731789c	1.0557337075220294
53	0x3ff59ae45a5f2c73	1.350315430655226
54	0x3ff0911441369d01	1.0354197070499256
55	0x3ff08a5c0f231bfe	1.033779200677372
56	0x3ff08b0bdbf1495f	1.033946856642238
57	0x3fef4558efda5165	0.9772152599930847
58	0x3ff1d835bd5edcfe	1.115285625199078
59	0x3ff1b05cd07264eb	1.1055572645621463
60	0x3fecc7c1ee511225	0.899384465658447
61	0x3ff0d2d0dc32604d	1.051468715804748
62	0x3ff09a617d2990e9	1.0376906289248444
63	0x3ff2565bafe2bb2e	1.146083533337968
64	0x3ff163c8d3503624	1.086861443941765
65	0x3ff2f9d9ce38302f	1.1859987311791078
66	0x3ff1bdb3f40d272e	1.1088141949898715
67	0x3ff50b5101237fa8	1.3152627987364927
68	0x3fec3cc4bf69c1df	0.882418035367717
69	0x3ff0417d24a8fed8	1.0159884864842095
70	0x3fee308a80f868af	0.9434254187538239
71	0x3ff196728fce8f5c	1.0992303483444266
72	0x3ff41dc294665b83	1.2572656437748442
73	0x3ff09fe4b2d4d544	1.0390364633179425
74	0x3ff0fe38e21a8cfc	1.06206596681369
75	0x3fea3d2b36ed044f	0.8199668953676652
76	0x3ff28502b1d69962	1.1574732729728443
77	0x3fef9e5238267217	0.98807631460983
78	0x3fef99c0472cee54	0.9875184431215964
79	0x3ff14e86283a8307	1.0816709109714695
80	0x3ff1bae13909bc47	1.108124945454408
81	0x3ff014fcbf796d13	1.0051238517251633
82	0x3fea829ba8f4e339	0.8284433650906983
83	0x3ff2bd382dc3717b	1.1711961543688563
84	0x3ff2742e604dd02b	1.1533645402787538
85	0x3ff6be52ce4314cd	1.4214656884299075
86	0x3ff25a98046c5804	1.147117631223865
87	0x3ff30b5c7fedd74f	1.19027376148502
88	0x3ff3a8fc974a425a	1.2287565145271828
89	0x3fefd9d2438bd78e	0.9953395194304322
90	0x3ff1498287bec891	1.0804467489765879
91	0x3ff074874e7937c4	1.0284493508693098
92	0x3ff0b1d1926f4896	1.043412754068901
93	0x3ff160f6010de7a6	1.0861721078094688
94	0x3ff367176da45e22	1.2126688273327848
95	0x3ff1bb1d6d1b194c	1.108182359881158
96	0x3ff0d2c8e9b00b02	1.0514611366676836
97	0x3fee9ed47ba78daf	0.9568884291770042
98	0x3ff28417f581ed30	1.15724941159608
99	0x3ff08d162c6098c5	1.0344449742784019
100	0x3ff1f7704f3f928e	1.1229098411214724
101	0x3ff231fbe0c1dc4c	1.137203100164487
102	0x3ff0a6b9cb951d6d	1.0407045319023738
103	0x3ff3f4ed02821abb	1.2472963426568373
104	0x3fed832f4aeb3cc9	0.9222637618312542
105	0x3ff132312cd2cfcb	1.074753928271991
106	0x3fecbaa17828f9af	0.8977820727230233
107	0x3ff2cff548fee50f	1.175771031512628
108	0x3ff2660df0a5ef0a	1.1499156380004387
109	0x3ff1eaff878ddcf6	1.119872598179254
110	0x3ff0791ec4cd0402	1.0295703589947611
111	0x3ff2117a878accf0	1.1292672438256055
112	0x3ff137070025ae0a	1.0759344106435287
113	0x3ff483e0d2a804e3	1.2821968296778372
114	0x3feed81ff6f0ccc5	0.9638824294146607
115	0x3ff11a17850d8d9c	1.0688700864201115
116	0x3ff0736ed8ba4fd3	1.0281818834237029
117	0x3ff46426e0840f47	1.2744511385107715
118	0x3ff3248c2c506cee	1.1964227419874152
119	0x3ff3762c07281017	1.2163505820799452
120	0x3ff21d70fafec588	1.132187824678427
121	0x3ff3b0ebfa0ae512	1.2306937949454704
122	0x3ff04cf4e232bcc1	1.0187882266871358
123	0x3ff5e193062cfccb	1.3675718537559074
124	0x3ff2881c857eabf3	1.1582303251877846
125	0x3ff1092c1562520e	1.06473930695677
126	0x3fe9d42bbbac789a	0.807149759817338
127	0x3ff27684185dca39	1.153934569531556

arr_22 f8 [128]
0	0xbff6b04b36796ff9	-1.4180404785065532
1	0x3fed15acc67ed936	0.9088958622803947
2	0xc0015102bea3826f	-2.164556016316332
3	0x3feeef0b8fe63570	0.9666803179294856
4	0x401353a603c42868	4.831687983367466
5	0xc01e09c62d89d8f4	-7.5095450511346264
6	0xc010564f5a145958	-4.0842870783729595
7	0x4012573a56767a51	4.585183478337584
8	0x4013ff52026ee439	4.999336278932838
9	0xbfdbad2da2326c6b	-0.4324449619250063
10	0x401408f2afe604f1	5.008738277830376
11	0x400e9460ed76ed70	3.822450499717597
12	0x40142c2d6513bd2c	5.043141917543192
13	0xc008f0e7afc33fea	-3.1176294070682973
14	0x3ffa9846a09e8724	1.6621767305554807
15	0xc00fc8b3d574034a	-3.972999255755359
16	0xc02128eaa049085b	-8.579915055194013
17	0x4015d06535b636c0	5.453511084791614
18	0x400c5eee5baab7e1	3.5463530694459995
19	0x401c9ea588e3fe35	7.1549283398776895
20	0x4018a2da87d90dbf	6.159036753294855
21	0x3ff538faeffe5db3	1.3264111876249955
22	0xc019484f736c50fd	-6.320615581022364
23	0x40200f446593bf36	8.029818701062691
24	0xc005ad623610bf6b	-2.709659979234791
25	0xc0059ce69191325b	-2.7016116497455136
26	0xc0060eacb20f903c	-2.757165328121145
27	0x400f70d4d25727b4	3.9300934250686286
28	0xc018783c281af5b6	-6.117416979451653
29	0x3fdf1cb8407af82a	0.4861279134455595
30	0x400f3d1f60b418a9	3.9048450045548475
31	0x40002fe5b5f4b30a	2.023387357263691
32	0xbffa424c17538d8b	-1.6411858473955785
33	0x4013f236bc0ebd5a	4.986536920928609
34	0x3fe61decb884a04e	0.6911529163235259
35	0x4008e30de1e9d3ea	3.110866322468145
36	0x401444a74261961d	5.067044293600273
37	0x4000a0f174c828d7	2.078585541113266
38	0x3ff74937ff883212	1.455375669643335
39	0xbff924e92b1d67f7	-1.5715114292311207
40	0xc01036bc9f3ddc38	-4.053453910971307
41	0x4011abf127243e38	4.417912112795925
42	0x4021540af1bf65fa	8.664145998586708
43	0xc018d38685ff2d95	-6.20656785364135
44	0xc004a7feb4d504a9	-2.5820287826068875
45	0x401ec8bb64f99121	7.696027353031497
46	0x3fffafb8d7f835a8	1.980400889998558
47	0x40107e2bea90008a	4.123214402236167
48	0xc01ed6241951cf67	-7.709122081392571
49	0xc00b1ec0ac3773a4	-3.39001593155122
50	0xc00ec8cec57dcda4	-3.8480506352440944
51	0xbfe68024947a5e0f	-0.7031424426995175
52	0xc01195a5c4617a17	-4.396140163850325
53	0xc010697906a4cb3c	-4.103000739868374
54	0xc02183239f355d55	-8.756131148590308
55	0xc01172f36513239f	-4.362256602566872
56	0xbfdc15d2398eea8e	-0.4388318597881743
57	0x40023d028ca55541	2.2797900188403735
58	0xbffceba25ecad2d0	-1.807527895243016
59	0x4007b7d3a60d7b2a	2.9647591565002545
60	0x400149c8bf098ccc	2.1610274243153977
61	0xc00c3b8d4dbe6b35	-3.5290781091438483
62	0x401202fc92487fa0	4.502916608500442
63	0xbfd33926aa28376a	-0.3003632222834002
64	0x3fa90a7cc0c75df1	0.04890813687569196
65	0x3fd900dbf03a078c	0.39067743739735117
66	0xbfb9ed690d92d94f	-0.10127884465587055
67	0xbfe10118d161fb1b	-0.5313839044100378
68	0xc0189faf0b26ef3e	-6.155941175700546
69	0xc011e918e045c689	-4.477633957155953
70	0xbfee26ae870dc9cc	-0.9422218930979454
71	0xbf85430305af17b1	-0.010381721125565098
72	0xbff6b18b793b7163	-1.4183459029801149
73	0x4003ac5ffbdc5cbc	2.4591674496292324
74	0xc00a0bf61b3147cb	-3.2558405041135976
75	0xc008a9813cda5e3a	-3.082766032613816
76	0x40059974921bb765	2.6999293722828264
77	0xc016c190360bd106	-5.689026684256765
78	0xc019a6091b1502db	-6.412144110829753
79	0x3ffa41ead89baf75	1.641093107343264
80	0xc00986537e593222	-3.190588938805619
81	0x3ffb05f0eb835b1b	1.6889504623156373
82	0xbfe3d3f508fc9f80	-0.6196236777804955
83	0x3ffdadd29f630a2a	1.8549371934938201
84	0x401b21ded8429b1f	6.783076647820763
85	0xc00a3f9b36fb15b7	-3.2810577674269683
86	0xbff13f05cafde26f	-1.0778863839497281
87	0x3ff3a1a4057b088e	1.226963063629714
88	0xbff8e515e311e596	-1.5559290761869753
89	0xbffa14674602706c	-1.629981301760405
90	0xbfecf9af0a2a713b	-0.9054789732504455
91	0xc000ca2cdcbdbdfd	-2.098718380489798
92	0x4020e9bc2a3eddce	8.45651371018803
93	0x4019fcad821af402	6.4967556313467885
94	0xbff5a56188510481	-1.3528762173521331
95	0xc0097ec3201d3f83	-3.186895609753209
96	0xc00bc948dd159dab	-3.4732835075589796
97	0x401451e9aff27f11	5.079993008781245
98	0xc01604239ab0c0ee	-5.504042069471536
99	0x401f09ed5a8140d0	7.7596944943799855
100	0xbff055fd6f8a45c6	-1.0209936482464044
101	0xc00f39cbc98e1aec	-3.9032207247249655
102	0xc011a6bdb4c987a7	-4.412833046722802
103	0xc010ecec67f321d0	-4.23137056752644
104	0xbfb7784c47f0c77b	-0.09167935139046605
105	0xbfec2c80a9e7401f	-0.8804324453758489
106	0x4011cc3cdb51ac52	4.449450899944241
107	0xbff04130f6aaf4eb	-1.0159158359013485
108	0x401024be5b34f153	4.0358824015678065
109	0xbff1221670bc0125	-1.0708221820532995
110	0x3ffaf41ccd37fe08	1.684597779880166
111	0x402026285f794a76	8.074526771121992
112	0xbfe96bd16f408da4	-0.794411389626863
113	0xc01626d17ecd0931	-5.537908536209486
114	0xc00979de815a7803	-3.18450642640437
115	0x3fc6b52d64c1d87e	0.17740409297738674
116	0xc00526199f5acc5c	-2.643603558500713
117	0xc01e00a32cab9e3e	-7.5006224612948795
118	0xbfc0605ae8a342dc	-0.12794052466644856
119	0xc008907594ff4a1f	-3.0705367699058708
120	0x4012aebee578897c	4.670650086862562
121	0x3ff3b16db27a69f4	1.2308175060085178
122	0x400a59750d606719	3.2936802907032754
123	0x3faa5c62064b7d3a	0.051486075657289423
124	0xc0035dafe7828277	-2.42074566714319
125	0x3fd6278944d7dcf1	0.3461630985543272
126	0xbfd4cb4cb366d7fe	-0.32490842361164585
127	0x401eb43d19bcabe7	7.676014330044359

arr_23 f8 [128]
0	0x3fb5635d1d431f2d	0.08354742016228718
1	0x3fb7069c60b99c79	0.08994462357951417
2	0x3fba64bd68f4747c	0.10309966862083003
3	0x3fb70c2eb2ba36d3	0.09002963889562503
4	0x3fb4721bc0df04c6	0.0798661561848518
5	0x3fb8b0e1d7d8a36d	0.09644900817569431
6	0x3fb8514c80624937	0.09499052175877841
7	0x3fba3c62406555a2	0.10248388359226238
8	0x3fae98de2299b35e	0.059760038112335975
9	0x3fb406b9b4e81790	0.07822762171426079
10	0x3fb53113de65f21e	0.08278011493343526
11	0x3fb70c644ab67796	0.09003283332864806
12	0x3fb4e56eccdd3832	0.08162586690488707
13	0x3fb680c9b151b580	0.08790264681893767
14	0x3fb2e90958c9970b	0.07386835496580717
15	0x3fb7c23ee0332746	0.09280770276668901
16	0x3fb84f3c4d6975ad	0.0949590386384986
17	0x3fb99901992908a2	0.09999093999161571
18	0x3fb2035c93fe7744	0.07036379445204682
19	0x3fbb4d87f297917f	0.10665177986772355
20	0x3fb70780d38eeb11	0.08995824017521793
21	0x3fb46180a516ac92	0.07961277037127193
22	0x3fbc7ee093156259	0.1113109931078581
23	0x3fb90d5786a2caad	0.0978598312092724
24	0x3fb26d469634cb1c	0.07197991530555864
25	0x3fb88162a563b6e9	0.0957242635519965
26	0x3fb9055078699265	0.09773734035258881
27	0x3fb6ec58409a318e	0.08954383446888967
28	0x3fb85f6d263d0447	0.09520609077027685
29	0x3fb99ca1f5364ac4	0.10004627453444487
30	0x3fae6d4b496fed54	0.059427597727302356
31	0x3fb3466ed110c2c1	0.07529347042214864
32	0x3fb4014366f8b641	0.07814427627519029
33	0x3fb57d4bdd93a146	0.08394312057101158
34	0x3fb4c01b1242e7a1	0.08105630107721008
35	0x3fb439edbb4a40cf	0.07900892088423749
36	0x3fb6a186f797d53a	0.08840220970872262
37	0x3fb47751e40c56c8	0.0799456769712733
38	0x3fb28b2c6741df6a	0.0724361183255248
39	0x3fba74fb99db1575	0.10334751611943267
40	0x3fb572ae2aabb1bf	0.08378113309635803
41	0x3fb19811bab6efd7	0.06872664268934102
42	0x3fb6fdfe51307212	0.08981313211592859
43	0x3fb70c745d5c75ad	0.09003379134488539
44	0x3fb4b4b1e2352cca	0.08088218472146305
45	0x3fb818382dc5cadb	0.09411955945487753
46	0x3fb40b3c1bcb0631	0.07829642942945082
47	0x3fb72773c5874ecf	0.09044574329828524
48	0x3fb85727164b05f1	0.09507984442009111
49	0x3fb752c517617ae0	0.09110671826190808
50	0x3fb8e122605e294b	0.09718527653436586
51	0x3fb80e649be928ab	0.09396961981215905
52	0x3fb6c76b1a3ab0dd	0.08898038282740424
53	0x3fb28c5c75974ee8	0.07245424147486867
54	0x3fb435843f7f1897	0.07894159841734659
55	0x3fb9c702c050ca83	0.10069291300968967
56	0x3fb5062550bfeac1	0.08212502690723068
57	0x3fb305cbe91ea297	0.07430719796560435
58	0x3fb3409f90ea3dd3	0.07520482337917338
59	0x3fba513b447fc325	0.10280199453678714
60	0x3fbadeb4344fac6f	0.10496069218759073
61	0x3fb5e2adebf856d3	0.08549010287273555
62	0x3fb66714d422dcbf	0.08751039675813653
63	0x3fb48d18322dfb97	0.08027793145264038
64	0x3fb3e2edb5a46021	0.07768140492078192
65	0x3fb62a0b0f966a33	0.08657902842097868
66	0x3fb794d13509dd02	0.0921145205010028
67	0x3fb4167822bd5ffd	0.07846785400522545
68	0x3fbc10185f671936	0.10962059334915328
69	0x3fb8e3450154651e	0.09721785814726444
70	0x3fb6c3928853a9f6	0.08892169788638413
71	0x3fb267c9cbbd6852	0.07189618324392313
72	0x3fb1e818c5e99965	0.06994776565406864
73	0x3fb81ac6effee8c1	0.09415858611365292
74	0x3fb7e91eee9c2118	0.0934008915465977
75	0x3fb810e5844ab5c3	0.09400782089024688
76	0x3fb46941c21a0a2c	0.07973109234630077
77	0x3fbc7507ab3e8d3c	0.11116073542375643
78	0x3fb63d91f01caacf	0.0868769847117321
79	0x3fb80c4f7e0aebad	0.09393784358228059
80	0x3fb29a4c6350f1c9	0.07266690659248022
81	0x3fb8dd0c06d7ac04	0.09712290923168615
82	0x3fba7c9c80be6ff4	0.10346391814385908
83	0x3fb5cfc021e95fa3	0.08520127132339765
84	0x3fb6461c40409427	0.08700729912432391
85	0x3fb14bb50ca64396	0.0675614505655758
86	0x3fb3eba94e3235ef	0.07781465682111109
87	0x3fb458004c465db4	0.07946779119662645
88	0x3fb2f40a08f62c08	0.07403624266423503
89	0x3fb88b020122cd89	0.09587109115346072
90	0x3fb62bae7a11c326	0.08660402755937166
91	0x3fb59e0fa75afc85	0.08444307170701577
92	0x3fb9dc91debb393a	0.10102187812592414
93	0x3fb9b01e79b02166	0.10034361334704087
94	0x3fb3535123f5e18c	0.07549006584111434
95	0x3fb75c53b9ffbb48	0.09125254908552194
96	0x3fb38b6394822b0a	0.07634565711684274
97	0x3fbde717c924b9f6	0.11680744801262918
98	0x3fb9123ca6bb79dc	0.09793452330220681
99	0x3fbe5e7aebe1ece9	0.11862915285921684
100	0x3fb8eef968403d9e	0.09739645762623758
101	0x3fb8fb70d3911390	0.09758668103411439
102	0x3fb8c54176c4910b	0.09675988340001511
103	0x3fb1b241bc561b34	0.0691262326055096
104	0x3fb63e5983b771d1	0.08688888040291622
105	0x3fb71dd6e307c6e5	0.09029906313642362
106	0x3fb7370e16cb6277	0.09068382317071576
107	0x3fb24f1c72f2e322	0.07151964002958924
108	0x3fb62a1c87ef7b43	0.08658006972062275
109	0x3fb2efa2fe14bde5	0.07396906569623914
110	0x3fb6c264166e8771	0.0889036707654023
111	0x3fb6c4da5b3c00f6	0.0889412377109727
112	0x3fb6fa5ef18216fa	0.08975785633273495
113	0x3fb315b72c7dbea6	0.07455010257921887
114	0x3fbba399e6b507e8	0.1079651058435328
115	0x3fb74ce69107f901	0.09101716080474277
116	0x3fb3a44c24dc615b	0.07672572994159081
117	0x3fb0a9cee80a99a5	0.06509106793473636
118	0x3fb5c125ee440e4b	0.0849784571365088
119	0x3fb6e681d2ef0114	0.08945475959535926
120	0x3fb7d055e506497d	0.09302269784374136
121	0x3fb36ed043ea7c85	0.07590963037590555
122	0x3fb7e84704549490	0.09338802200052698
123	0x3fb135b64f32fdcb	0.06722583230565886
124	0x3fb40573bb502917	0.07820819209169759
125	0x3fb8afb1893f2443	0.09643087006328792
126	0x3fbf301962667846	0.12182768490171822
127	0x3fb879745394bb76	0.09560324707557108
