bnn/src/training_pytorch/models/hcnv_cifar10-w1a1.npz (npz, 380286 bytes, 35 tensors)

arr_0 f4 [16, 3, 5, 5]
0	0x3f800000	1.0
1	0xbf800000	-1.0
2	0x3f800000	1.0
3	0xbf800000	-1.0
4	0xbf800000	-1.0
5	0xbf800000	-1.0
6	0xbf800000	-1.0
7	0xbf800000	-1.0
8	0xbf800000	-1.0
9	0x3f800000	1.0
10	0xbf800000	-1.0
11	0xbf800000	-1.0
12	0x3f800000	1.0
13	0x3f800000	1.0
14	0xbf800000	-1.0
15	0xbf800000	-1.0
16	0x3f800000	1.0
17	0x3f800000	1.0
18	0xbf800000	-1.0
19	0xbf800000	-1.0
20	0x3f800000	1.0
21	0x3f800000	1.0
22	0x3f800000	1.0
23	0xbf800000	-1.0
24	0xbf800000	-1.0
25	0x3f800000	1.0
26	0xbf800000	-1.0
27	0x3f800000	1.0
28	0x3f800000	1.0
29	0x3f800000	1.0
30	0x3f800000	1.0
31	0x3f800000	1.0
32	0xbf800000	-1.0
33	0xbf800000	-1.0
34	0x3f800000	1.0
35	0x3f800000	1.0
36	0xbf800000	-1.0
37	0x3f800000	1.0
38	0x3f800000	1.0
39	0x3f800000	1.0
40	0x3f800000	1.0
41	0xbf800000	-1.0
42	0xbf800000	-1.0
43	0xbf800000	-1.0
44	0x3f800000	1.0
45	0x3f800000	1.0
46	0x3f800000	1.0
47	0xbf800000	-1.0
48	0x3f800000	1.0
49	0x3f800000	1.0
50	0x3f800000	1.0
51	0xbf800000	-1.0
52	0x3f800000	1.0
53	0xbf800000	-1.0
54	0x3f800000	1.0
55	0xbf800000	-1.0
56	0x3f800000	1.0
57	0x3f800000	1.0
58	0xbf800000	-1.0
59	0xbf800000	-1.0
60	0x3f800000	1.0
61	0x3f800000	1.0
62	0xbf800000	-1.0
63	0x3f800000	1.0
64	0xbf800000	-1.0
65	0xbf800000	-1.0
66	0xbf800000	-1.0
67	0x3f800000	1.0
68	0x3f800000	1.0
69	0xbf800000	-1.0
70	0xbf800000	-1.0
71	0x3f800000	1.0
72	0xbf800000	-1.0
73	0xbf800000	-1.0
74	0x3f800000	1.0
75	0xbf800000	-1.0
76	0xbf800000	-1.0
77	0xbf800000	-1.0
78	0xbf800000	-1.0
79	0x3f800000	1.0
80	0xbf800000	-1.0
81	0xbf800000	-1.0
82	0x3f800000	1.0
83	0xbf800000	-1.0
84	0xbf800000	-1.0
85	0x3f800000	1.0
86	0xbf800000	-1.0
87	0x3f800000	1.0
88	0x3f800000	1.0
89	0x3f800000	1.0
90	0x3f800000	1.0
91	0xbf800000	-1.0
92	0xbf800000	-1.0
93	0xbf800000	-1.0
94	0x3f800000	1.0
95	0xbf800000	-1.0
96	0x3f800000	1.0
97	0xbf800000	-1.0
98	0xbf800000	-1.0
99	0xbf800000	-1.0
100	0x3f800000	1.0
101	0xbf800000	-1.0
102	0xbf800000	-1.0
103	0x3f800000	1.0
104	0xbf800000	-1.0
105	0xbf800000	-1.0
106	0xbf800000	-1.0
107	0xbf800000	-1.0
108	0x3f800000	1.0
109	0x3f800000	1.0
110	0xbf800000	-1.0
111	0x3f800000	1.0
112	0xbf800000	-1.0
113	0x3f800000	1.0
114	0x3f800000	1.0
115	0xbf800000	-1.0
116	0xbf800000	-1.0
117	0xbf800000	-1.0
118	0xbf800000	-1.0
119	0x3f800000	1.0
120	0xbf800000	-1.0
121	0x3f800000	1.0
122	0x3f800000	1.0
123	0x3f800000	1.0
124	0x3f800000	1.0
125	0xbf800000	-1.0
126	0xbf800000	-1.0
127	0xbf800000	-1.0
128	0xbf800000	-1.0
129	0x3f800000	1.0
130	0xbf800000	-1.0
131	0xbf800000	-1.0
132	0x3f800000	1.0
133	0xbf800000	-1.0
134	0xbf800000	-1.0
135	0xbf800000	-1.0
136	0xbf800000	-1.0
137	0x3f800000	1.0
138	0xbf800000	-1.0
139	0x3f800000	1.0
140	0xbf800000	-1.0
141	0x3f800000	1.0
142	0x3f800000	1.0
143	0xbf800000	-1.0
144	0x3f800000	1.0
145	0xbf800000	-1.0
146	0xbf800000	-1.0
147	0x3f800000	1.0
148	0x3f800000	1.0
149	0xbf800000	-1.0
150	0x3f800000	1.0
151	0x3f800000	1.0
152	0xbf800000	-1.0
153	0xbf800000	-1.0
154	0x3f800000	1.0
155	0xbf800000	-1.0
156	0x3f800000	1.0
157	0x3f800000	1.0
158	0xbf800000	-1.0
159	0xbf800000	-1.0
160	0xbf800000	-1.0
161	0x3f800000	1.0
162	0x3f800000	1.0
163	0xbf800000	-1.0
164	0x3f800000	1.0
165	0xbf800000	-1.0
166	0x3f800000	1.0
167	0x3f800000	1.0
168	0xbf800000	-1.0
169	0xbf800000	-1.0
170	0x3f800000	1.0
171	0x3f800000	1.0
172	0xbf800000	-1.0
173	0xbf800000	-1.0
174	0x3f800000	1.0
175	0xbf800000	-1.0
176	0x3f800000	1.0
177	0xbf800000	-1.0
178	0xbf800000	-1.0
179	0xbf800000	-1.0
180	0x3f800000	1.0
181	0x3f800000	1.0
182	0xbf800000	-1.0
183	0xbf800000	-1.0
184	0xbf800000	-1.0
185	0x3f800000	1.0
186	0xbf800000	-1.0
187	0x3f800000	1.0
188	0xbf800000	-1.0
189	0xbf800000	-1.0
190	0x3f800000	1.0
191	0x3f800000	1.0
192	0x3f800000	1.0
193	0xbf800000	-1.0
194	0xbf800000	-1.0
195	0xbf800000	-1.0
196	0x3f800000	1.0
197	0x3f800000	1.0
198	0xbf800000	-1.0
199	0x3f800000	1.0
200	0x3f800000	1.0
201	0x3f800000	1.0
202	0x3f800000	1.0
203	0xbf800000	-1.0
204	0x3f800000	1.0
205	0x3f800000	1.0
206	0x3f800000	1.0
207	0x3f800000	1.0
208	0xbf800000	-1.0
209	0xbf800000	-1.0
210	0x3f800000	1.0
211	0x3f800000	1.0
212	0xbf800000	-1.0
213	0xbf800000	-1.0
214	0x3f800000	1.0
215	0xbf800000	-1.0
216	0x3f800000	1.0
217	0x3f800000	1.0
218	0xbf800000	-1.0
219	0xbf800000	-1.0
220	0x3f800000	1.0
221	0xbf800000	-1.0
222	0xbf800000	-1.0
223	0xbf800000	-1.0
224	0xbf800000	-1.0
225	0x3f800000	1.0
226	0x3f800000	1.0
227	0x3f800000	1.0
228	0x3f800000	1.0
229	0x3f800000	1.0
230	0x3f800000	1.0
231	0x3f800000	1.0
232	0x3f800000	1.0
233	0x3f800000	1.0
234	0x3f800000	1.0
235	0xbf800000	-1.0
236	0xbf800000	-1.0
237	0x3f800000	1.0
238	0x3f800000	1.0
239	0xbf800000	-1.0
240	0xbf800000	-1.0
241	0x3f800000	1.0
242	0xbf800000	-1.0
243	0xbf800000	-1.0
244	0x3f800000	1.0
245	0xbf800000	-1.0
246	0x3f800000	1.0
247	0xbf800000	-1.0
248	0xbf800000	-1.0
249	0x3f800000	1.0
250	0xbf800000	-1.0
251	0xbf800000	-1.0
252	0x3f800000	1.0
253	0xbf800000	-1.0
254	0xbf800000	-1.0
255	0x3f800000	1.0

arr_1 f4 [16]
0	0x3bc6b102	0.0060635814
1	0x3c499954	0.012304623
2	0x3c0750d2	0.008259015
3	0x3c45ec18	0.012080215
4	0x3c6622dd	0.014046398
5	0x3c0739f7	0.008253566
6	0x3c387974	0.011259425
7	0x3bc361a7	0.005962569
8	0x3bf5f4d4	0.0075059924
9	0x3c24edaa	0.010066429
10	0x3c1f5274	0.009724248
11	0x3c0f48a2	0.008745344
12	0x3bbfccd5	0.0058532753
13	0x3c17f887	0.009275562
14	0x3c00c815	0.007860203
15	0x3c1feccb	0.009761046

arr_2 f4 [16]
0	0xbe8c4b55	-0.27401224
1	0x3ef7b181	0.48377612
2	0xbf8c0065	-1.093762
3	0xbe953a39	-0.29145983
4	0x3f837455	1.0269877
5	0xbf428dad	-0.7599743
6	0xbea2216c	-0.31666124
7	0xbf20d47d	-0.6282423
8	0x3e12564f	0.14290737
9	0xbf22a952	-0.6353961
10	0xbf88ac75	-1.067763
11	0x3ef85ab6	0.48506707
12	0xbf995007	-1.1977547
13	0x3f5b52e5	0.8567336
14	0xbfb5fc1d	-1.4217564
15	0x3de361f5	0.11102668

arr_3 f4 [16]
0	0x3f30af5a	0.69017565
1	0x3f80198b	1.0007795
2	0x3fc67ccf	1.5506839
3	0x3f1370f1	0.5759421
4	0x3fbf64ee	1.4952676
5	0x3f634e59	0.88791424
6	0x3f6a54bf	0.9153556
7	0x3f8ff60c	1.1246963
8	0x3f9a23bf	1.2042159
9	0x3f50330a	0.8132788
10	0x3f610546	0.8789867
11	0x3fb3813f	1.4023818
12	0x3fb1bdea	1.3886082
13	0x3f8abd4c	1.0839019
14	0x3fb3a6a7	1.4035233
15	0x3f9b9c58	1.2157087

arr_4 f4 [16]
0	0xbf1ea464	-0.6196959
1	0x3fc85da1	1.5653573
2	0x3e6a4c42	0.22880653
3	0xbf352cd5	-0.70771533
4	0xbeff2d09	-0.49839047
5	0x3efb0d22	0.49033457
6	0xc0074f6b	-2.1142223
7	0xbf5cbe5d	-0.8622797
8	0x3ebcc52b	0.36869177
9	0xbe29c287	-0.16578113
10	0x3f864dc7	1.0492486
11	0xbe9c5128	-0.30530667
12	0x3e297e51	0.16552092
13	0x3f2a97d9	0.6663795
14	0x3ed7d5da	0.42155343
15	0xbea9692b	-0.3308805

arr_5 f4 [16]
0	0x3e752677	0.23940454
1	0x3d8d15d3	0.06888928
2	0x3dcfa9de	0.101398215
3	0x3e2e611d	0.17029233
4	0x3dcefc7f	0.101067536
5	0x3dd5584e	0.104172334
6	0x3d70e2eb	0.058810156
7	0x3db9ab04	0.09065822
8	0x3e30196e	0.171972
9	0x3e2e1f6f	0.17004178
10	0x3dc9436a	0.09827311
11	0x3dd73ce3	0.1050966
12	0x3da062b9	0.0783133
13	0x3dbcc90d	0.09218035
14	0x3e05b3d9	0.13056888
15	0x3ddd03af	0.10791718

arr_6 f4 [32, 16, 5, 5]
0	0xbf800000	-1.0
1	0x3f800000	1.0
2	0xbf800000	-1.0
3	0xbf800000	-1.0
4	0xbf800000	-1.0
5	0x3f800000	1.0
6	0xbf800000	-1.0
7	0x3f800000	1.0
8	0x3f800000	1.0
9	0x3f800000	1.0
10	0x3f800000	1.0
11	0x3f800000	1.0
12	0x3f800000	1.0
13	0x3f800000	1.0
14	0xbf800000	-1.0
15	0x3f800000	1.0
16	0xbf800000	-1.0
17	0x3f800000	1.0
18	0x3f800000	1.0
19	0x3f800000	1.0
20	0xbf800000	-1.0
21	0x3f800000	1.0
22	0xbf800000	-1.0
23	0xbf800000	-1.0
24	0x3f800000	1.0
25	0xbf800000	-1.0
26	0xbf800000	-1.0
27	0xbf800000	-1.0
28	0xbf800000	-1.0
29	0xbf800000	-1.0
30	0xbf800000	-1.0
31	0xbf800000	-1.0
32	0x3f800000	1.0
33	0x3f800000	1.0
34	0x3f800000	1.0
35	0xbf800000	-1.0
36	0xbf800000	-1.0
37	0xbf800000	-1.0
38	0x3f800000	1.0
39	0xbf800000	-1.0
40	0xbf800000	-1.0
41	0xbf800000	-1.0
42	0xbf800000	-1.0
43	0xbf800000	-1.0
44	0xbf800000	-1.0
45	0xbf800000	-1.0
46	0xbf800000	-1.0
47	0xbf800000	-1.0
48	0xbf800000	-1.0
49	0x3f800000	1.0
50	0xbf800000	-1.0
51	0xbf800000	-1.0
52	0x3f800000	1.0
53	0xbf800000	-1.0
54	0xbf800000	-1.0
55	0xbf800000	-1.0
56	0xbf800000	-1.0
57	0x3f800000	1.0
58	0x3f800000	1.0
59	0xbf800000	-1.0
60	0xbf800000	-1.0
61	0xbf800000	-1.0
62	0x3f800000	1.0
63	0xbf800000	-1.0
64	0xbf800000	-1.0
65	0xbf800000	-1.0
66	0xbf800000	-1.0
67	0xbf800000	-1.0
68	0x3f800000	1.0
69	0xbf800000	-1.0
70	0xbf800000	-1.0
71	0xbf800000	-1.0
72	0xbf800000	-1.0
73	0xbf800000	-1.0
74	0xbf800000	-1.0
75	0xbf800000	-1.0
76	0x3f800000	1.0
77	0xbf800000	-1.0
78	0x3f800000	1.0
79	0x3f800000	1.0
80	0x3f800000	1.0
81	0xbf800000	-1.0
82	0xbf800000	-1.0
83	0x3f800000	1.0
84	0x3f800000	1.0
85	0xbf800000	-1.0
86	0x3f800000	1.0
87	0x3f800000	1.0
88	0x3f800000	1.0
89	0xbf800000	-1.0
90	0x3f800000	1.0
91	0xbf800000	-1.0
92	0xbf800000	-1.0
93	0x3f800000	1.0
94	0x3f800000	1.0
95	0xbf800000	-1.0
96	0xbf800000	-1.0
97	0x3f800000	1.0
98	0x3f800000	1.0
99	0x3f800000	1.0
100	0xbf800000	-1.0
101	0x3f800000	1.0
102	0xbf800000	-1.0
103	0x3f800000	1.0
104	0x3f800000	1.0
105	0x3f800000	1.0
106	0xbf800000	-1.0
107	0x3f800000	1.0
108	0x3f800000	1.0
109	0x3f800000	1.0
110	0x3f800000	1.0
111	0x3f800000	1.0
112	0x3f800000	1.0
113	0x3f800000	1.0
114	0x3f800000	1.0
115	0x3f800000	1.0
116	0x3f800000	1.0
117	0x3f800000	1.0
118	0x3f800000	1.0
119	0x3f800000	1.0
120	0x3f800000	1.0
121	0x3f800000	1.0
122	0x3f800000	1.0
123	0x3f800000	1.0
124	0x3f800000	1.0
125	0xbf800000	-1.0
126	0xbf800000	-1.0
127	0x3f800000	1.0
128	0x3f800000	1.0
129	0xbf800000	-1.0
130	0x3f800000	1.0
131	0x3f800000	1.0
132	0xbf800000	-1.0
133	0x3f800000	1.0
134	0xbf800000	-1.0
135	0x3f800000	1.0
136	0x3f800000	1.0
137	0xbf800000	-1.0
138	0x3f800000	1.0
139	0x3f800000	1.0
140	0xbf800000	-1.0
141	0x3f800000	1.0
142	0x3f800000	1.0
143	0xbf800000	-1.0
144	0x3f800000	1.0
145	0xbf800000	-1.0
146	0xbf800000	-1.0
147	0x3f800000	1.0
148	0x3f800000	1.0
149	0xbf800000	-1.0
150	0x3f800000	1.0
151	0x3f800000	1.0
152	0x3f800000	1.0
153	0x3f800000	1.0
154	0x3f800000	1.0
155	0xbf800000	-1.0
156	0xbf800000	-1.0
157	0xbf800000	-1.0
158	0xbf800000	-1.0
159	0x3f800000	1.0
160	0x3f800000	1.0
161	0x3f800000	1.0
162	0xbf800000	-1.0
163	0x3f800000	1.0
164	0xbf800000	-1.0
165	0x3f800000	1.0
166	0x3f800000	1.0
167	0xbf800000	-1.0
168	0x3f800000	1.0
169	0xbf800000	-1.0
170	0xbf800000	-1.0
171	0x3f800000	1.0
172	0xbf800000	-1.0
173	0x3f800000	1.0
174	0x3f800000	1.0
175	0x3f800000	1.0
176	0x3f800000	1.0
177	0xbf800000	-1.0
178	0xbf800000	-1.0
179	0x3f800000	1.0
180	0x3f800000	1.0
181	0xbf800000	-1.0
182	0x3f800000	1.0
183	0x3f800000	1.0
184	0xbf800000	-1.0
185	0x3f800000	1.0
186	0x3f800000	1.0
187	0x3f800000	1.0
188	0x3f800000	1.0
189	0x3f800000	1.0
190	0x3f800000	1.0
191	0xbf800000	-1.0
192	0xbf800000	-1.0
193	0x3f800000	1.0
194	0xbf800000	-1.0
195	0x3f800000	1.0
196	0xbf800000	-1.0
197	0xbf800000	-1.0
198	0xbf800000	-1.0
199	0xbf800000	-1.0
200	0xbf800000	-1.0
201	0xbf800000	-1.0
202	0xbf800000	-1.0
203	0xbf800000	-1.0
204	0xbf800000	-1.0
205	0xbf800000	-1.0
206	0xbf800000	-1.0
207	0xbf800000	-1.0
208	0xbf800000	-1.0
209	0x3f800000	1.0
210	0x3f800000	1.0
211	0xbf800000	-1.0
212	0xbf800000	-1.0
213	0xbf800000	-1.0
214	0xbf800000	-1.0
215	0xbf800000	-1.0
216	0xbf800000	-1.0
217	0x3f800000	1.0
218	0x3f800000	1.0
219	0x3f800000	1.0
220	0x3f800000	1.0
221	0x3f800000	1.0
222	0xbf800000	-1.0
223	0x3f800000	1.0
224	0xbf800000	-1.0
225	0x3f800000	1.0
226	0x3f800000	1.0
227	0x3f800000	1.0
228	0x3f800000	1.0
229	0xbf800000	-1.0
230	0xbf800000	-1.0
231	0x3f800000	1.0
232	0xbf800000	-1.0
233	0xbf800000	-1.0
234	0xbf800000	-1.0
235	0xbf800000	-1.0
236	0x3f800000	1.0
237	0xbf800000	-1.0
238	0xbf800000	-1.0
239	0xbf800000	-1.0
240	0x3f800000	1.0
241	0x3f800000	1.0
242	0x3f800000	1.0
243	0x3f800000	1.0
244	0x3f800000	1.0
245	0xbf800000	-1.0
246	0x3f800000	1.0
247	0x3f800000	1.0
248	0x3f800000	1.0
249	0x3f800000	1.0
250	0x3f800000	1.0
251	0xbf800000	-1.0
252	0xbf800000	-1.0
253	0x3f800000	1.0
254	0x3f800000	1.0
255	0x3f800000	1.0

arr_7 f4 [32]
0	0x3c272f37	0.010204128
1	0x3c286f87	0.010280496
2	0x3c24948d	0.010045183
3	0x3c18cb75	0.009325852
4	0x3c238d1b	0.009982373
5	0x3c1b99b8	0.009497099
6	0x3c1b6db9	0.009486609
7	0x3c236530	0.009972855
8	0x3c1de966	0.009638166
9	0x3c254cdf	0.010089128
10	0x3c1c137c	0.00952613
11	0x3c1e4434	0.009659816
12	0x3c1f7d54	0.00973447
13	0x3c293418	0.0103273615
14	0x3c1fd727	0.009755886
15	0x3c27193e	0.010198889
16	0x3c2906b7	0.010316542
17	0x3c179e6c	0.009254079
18	0x3c2818ba	0.0102598015
19	0x3c2a8453	0.010407525
20	0x3c2197cb	0.00986285
21	0x3c1cdcfe	0.009574173
22	0x3c1b5b05	0.00948215
23	0x3c1d493f	0.009599983
24	0x3c288bc0	0.010287225
25	0x3c1fea8c	0.00976051
26	0x3c1da7e0	0.009622544
27	0x3c1cdefd	0.009574649
28	0x3c25b867	0.010114766
29	0x3c2228b2	0.009897398
30	0x3c227c8f	0.009917392
31	0x3c2f410b	0.01069666

arr_8 f4 [32]
0	0x3aaa134f	0.0012975725
1	0xbf351a2f	-0.7074308
2	0x3db27a26	0.08714704
3	0xbed36895	-0.41290727
4	0xbf83dbc8	-1.0301447
5	0x3e49db61	0.19712593
6	0xbf68fa57	-0.9100699
7	0xbf07bf15	-0.53025943
8	0xbd9df66a	-0.077130154
9	0xbcb591cf	-0.022164254
10	0xbeb8bfc0	-0.36083794
11	0xbedf15f9	-0.4357145
12	0xbf484cc3	-0.7824213
13	0xbefdf911	-0.49604085
14	0x3d436b9e	0.047710054
15	0xbdfacece	-0.12246476
16	0x3d9c6258	0.07635945
17	0xbe2dac85	-0.16960342
18	0xbe9d94c1	-0.30777553
19	0xbe8d8907	-0.27643606
20	0xbeac4ce0	-0.336524
21	0xbee1c766	-0.4409744
22	0x3deee3e6	0.11664562
23	0xbeac1e05	-0.33616653
24	0x3d402d2c	0.04691808
25	0xbecad429	-0.3961499
26	0xbdb83828	-0.08995086
27	0xbf079545	-0.5296214
28	0xbefc037e	-0.49221414
29	0xbed9a1ea	-0.42506343
30	0x3e8b7443	0.27237138
31	0x3e02dcf6	0.12779602

arr_9 f4 [32]
0	0x3f2e6192	0.6811763
1	0x3f53bf3b	0.8271367
2	0x3f84242c	1.0323539
3	0x3f80f4a5	1.007466
4	0x3f7fee05	0.99972564
5	0x3f482f84	0.78197503
6	0x3f93d0e4	1.1548123
7	0x3f612063	0.87940043
8	0x3f4fe2af	0.81205267
9	0x3f2e1f64	0.6801665
10	0x3f77578c	0.9661796
11	0x3f9b6328	1.2139635
12	0x3f79ba0d	0.97549516
13	0x3f651d2a	0.89497626
14	0x3f486f12	0.7829448
15	0x3f716a8c	0.943032
16	0x3f4f85c4	0.81063485
17	0x3f77f1b6	0.96853197
18	0x3f6147b3	0.8800003
19	0x3f3a3960	0.727438
20	0x3f5336fa	0.8250576
21	0x3f807464	1.003552
22	0x3f8ecee4	1.1156888
23	0x3f7547c2	0.9581262
24	0x3f828211	1.0195943
25	0x3f7523e8	0.95757914
26	0x3f356bc3	0.70867556
27	0x3f529d6b	0.8227145
28	0x3f4a68bc	0.7906606
29	0x3f700dc6	0.93771017
30	0x3f99a3bc	1.2003093
31	0x3f51149f	0.8167209

arr_10 f4 [32]
0	0x40ad9ae3	5.425157
1	0xc1121ed5	-9.132527
2	0xc1bf8248	-23.938614
3	0xc0b1a9e6	-5.5519896
4	0x418dc8e1	17.723085
5	0xc0602ca7	-3.5027254
6	0xc16061d3	-14.023883
7	0x415192e6	13.098364
8	0xc0b0f1ac	-5.529501
9	0xc24e6f7d	-51.608875
10	0xc1418e0f	-12.097182
11	0xc1a2eadd	-20.36468
12	0xc1d397c8	-26.449112
13	0x42087cff	34.122066
14	0x413cd788	11.80262
15	0xc1523db3	-13.140063
16	0x41c17633	24.182714
17	0x42258017	41.375088
18	0xc20651e0	-33.579956
19	0xc1d4ae77	-26.585188
20	0x40e3927e	7.1116323
21	0xc122963e	-10.16168
22	0xc22c247b	-43.035625
23	0x41ef317c	29.899162
24	0x42230436	40.754112
25	0xc20d4ace	-35.32305
26	0x41c4cc17	24.599653
27	0xc09f47e4	-4.9775257
28	0xc0ea6a1d	-7.3254533
29	0xc1484ddf	-12.5190115
30	0xc189451f	-17.15875
31	0x3f87f8f1	1.0622846

arr_11 f4 [32]
0	0x3d0b3428	0.033985287
1	0x3d415c3a	0.047207095
2	0x3d4cf3db	0.050037246
3	0x3d2adcc9	0.041714463
4	0x3d2b4594	0.0418144
5	0x3d2886d7	0.04114422
6	0x3d30eee9	0.043196592
7	0x3d3133d9	0.043262336
8	0x3d85695e	0.06514238
9	0x3d301535	0.042988975
10	0x3d43a26b	0.047762316
11	0x3cfb568f	0.030680923
12	0x3d31d792	0.043418474
13	0x3d2b8c67	0.041881945
14	0x3d05a935	0.03263207
15	0x3d1d04ce	0.03833466
16	0x3d43a963	0.04776896
17	0x3d277824	0.04088606
18	0x3d33a739	0.043860648
19	0x3d2657a6	0.04061093
20	0x3d0867c1	0.033302072
21	0x3d2c0b36	0.04200288
22	0x3d157c80	0.036495686
23	0x3d360286	0.044436
24	0x3d09cd0d	0.033642817
25	0x3d1340d2	0.03595049
26	0x3d434864	0.04767646
27	0x3d0edf7b	0.034881096
28	0x3d3a5431	0.045490447
29	0x3d263a62	0.040583022
30	0x3cfb2792	0.030658517
31	0x3d3e5cca	0.04647521

arr_12 f4 [64, 32, 5, 5]
0	0xbf800000	-1.0
1	0x3f800000	1.0
2	0xbf800000	-1.0
3	0x3f800000	1.0
4	0x3f800000	1.0
5	0xbf800000	-1.0
6	0xbf800000	-1.0
7	0x3f800000	1.0
8	0xbf800000	-1.0
9	0x3f800000	1.0
10	0xbf800000	-1.0
11	0x3f800000	1.0
12	0x3f800000	1.0
13	0xbf800000	-1.0
14	0xbf800000	-1.0
15	0xbf800000	-1.0
16	0xbf800000	-1.0
17	0xbf800000	-1.0
18	0xbf800000	-1.0
19	0x3f800000	1.0
20	0x3f800000	1.0
21	0x3f800000	1.0
22	0xbf800000	-1.0
23	0x3f800000	1.0
24	0x3f800000	1.0
25	0xbf800000	-1.0
26	0xbf800000	-1.0
27	0x3f800000	1.0
28	0xbf800000	-1.0
29	0x3f800000	1.0
30	0xbf800000	-1.0
31	0x3f800000	1.0
32	0x3f800000	1.0
33	0x3f800000	1.0
34	0x3f800000	1.0
35	0xbf800000	-1.0
36	0x3f800000	1.0
37	0x3f800000	1.0
38	0xbf800000	-1.0
39	0xbf800000	-1.0
40	0xbf800000	-1.0
41	0x3f800000	1.0
42	0x3f800000	1.0
43	0x3f800000	1.0
44	0xbf800000	-1.0
45	0xbf800000	-1.0
46	0x3f800000	1.0
47	0xbf800000	-1.0
48	0xbf800000	-1.0
49	0xbf800000	-1.0
50	0xbf800000	-1.0
51	0x3f800000	1.0
52	0x3f800000	1.0
53	0x3f800000	1.0
54	0x3f800000	1.0
55	0x3f800000	1.0
56	0x3f800000	1.0
57	0x3f800000	1.0
58	0xbf800000	-1.0
59	0xbf800000	-1.0
60	0xbf800000	-1.0
61	0xbf800000	-1.0
62	0x3f800000	1.0
63	0x3f800000	1.0
64	0xbf800000	-1.0
65	0xbf800000	-1.0
66	0xbf800000	-1.0
67	0x3f800000	1.0
68	0xbf800000	-1.0
69	0xbf800000	-1.0
70	0x3f800000	1.0
71	0x3f800000	1.0
72	0x3f800000	1.0
73	0xbf800000	-1.0
74	0xbf800000	-1.0
75	0x3f800000	1.0
76	0xbf800000	-1.0
77	0xbf800000	-1.0
78	0xbf800000	-1.0
79	0xbf800000	-1.0
80	0x3f800000	1.0
81	0x3f800000	1.0
82	0x3f800000	1.0
83	0x3f800000	1.0
84	0xbf800000	-1.0
85	0xbf800000	-1.0
86	0xbf800000	-1.0
87	0xbf800000	-1.0
88	0x3f800000	1.0
89	0xbf800000	-1.0
90	0xbf800000	-1.0
91	0xbf800000	-1.0
92	0x3f800000	1.0
93	0x3f800000	1.0
94	0xbf800000	-1.0
95	0xbf800000	-1.0
96	0x3f800000	1.0
97	0x3f800000	1.0
98	0x3f800000	1.0
99	0x3f800000	1.0
100	0x3f800000	1.0
101	0xbf800000	-1.0
102	0xbf800000	-1.0
103	0x3f800000	1.0
104	0x3f800000	1.0
105	0xbf800000	-1.0
106	0xbf800000	-1.0
107	0xbf800000	-1.0
108	0xbf800000	-1.0
109	0x3f800000	1.0
110	0xbf800000	-1.0
111	0xbf800000	-1.0
112	0xbf800000	-1.0
113	0x3f800000	1.0
114	0xbf800000	-1.0
115	0x3f800000	1.0
116	0xbf800000	-1.0
117	0x3f800000	1.0
118	0xbf800000	-1.0
119	0xbf800000	-1.0
120	0x3f800000	1.0
121	0x3f800000	1.0
122	0x3f800000	1.0
123	0x3f800000	1.0
124	0xbf800000	-1.0
125	0x3f800000	1.0
126	0x3f800000	1.0
127	0x3f800000	1.0
128	0xbf800000	-1.0
129	0x3f800000	1.0
130	0xbf800000	-1.0
131	0xbf800000	-1.0
132	0x3f800000	1.0
133	0xbf800000	-1.0
134	0x3f800000	1.0
135	0x3f800000	1.0
136	0xbf800000	-1.0
137	0xbf800000	-1.0
138	0xbf800000	-1.0
139	0x3f800000	1.0
140	0x3f800000	1.0
141	0xbf800000	-1.0
142	0xbf800000	-1.0
143	0xbf800000	-1.0
144	0x3f800000	1.0
145	0x3f800000	1.0
146	0x3f800000	1.0
147	0x3f800000	1.0
148	0x3f800000	1.0
149	0x3f800000	1.0
150	0x3f800000	1.0
151	0xbf800000	-1.0
152	0xbf800000	-1.0
153	0xbf800000	-1.0
154	0xbf800000	-1.0
155	0x3f800000	1.0
156	0xbf800000	-1.0
157	0xbf800000	-1.0
158	0x3f800000	1.0
159	0x3f800000	1.0
160	0xbf800000	-1.0
161	0xbf800000	-1.0
162	0x3f800000	1.0
163	0x3f800000	1.0
164	0xbf800000	-1.0
165	0x3f800000	1.0
166	0x3f800000	1.0
167	0x3f800000	1.0
168	0xbf800000	-1.0
169	0xbf800000	-1.0
170	0x3f800000	1.0
171	0x3f800000	1.0
172	0x3f800000	1.0
173	0x3f800000	1.0
174	0x3f800000	1.0
175	0xbf800000	-1.0
176	0x3f800000	1.0
177	0xbf800000	-1.0
178	0x3f800000	1.0
179	0x3f800000	1.0
180	0xbf800000	-1.0
181	0xbf800000	-1.0
182	0x3f800000	1.0
183	0x3f800000	1.0
184	0xbf800000	-1.0
185	0x3f800000	1.0
186	0xbf800000	-1.0
187	0x3f800000	1.0
188	0xbf800000	-1.0
189	0xbf800000	-1.0
190	0x3f800000	1.0
191	0xbf800000	-1.0
192	0xbf800000	-1.0
193	0xbf800000	-1.0
194	0x3f800000	1.0
195	0x3f800000	1.0
196	0x3f800000	1.0
197	0xbf800000	-1.0
198	0xbf800000	-1.0
199	0x3f800000	1.0
200	0xbf800000	-1.0
201	0x3f800000	1.0
202	0xbf800000	-1.0
203	0xbf800000	-1.0
204	0x3f800000	1.0
205	0x3f800000	1.0
206	0x3f800000	1.0
207	0x3f800000	1.0
208	0x3f800000	1.0
209	0xbf800000	-1.0
210	0x3f800000	1.0
211	0xbf800000	-1.0
212	0xbf800000	-1.0
213	0xbf800000	-1.0
214	0xbf800000	-1.0
215	0x3f800000	1.0
216	0x3f800000	1.0
217	0x3f800000	1.0
218	0x3f800000	1.0
219	0xbf800000	-1.0
220	0x3f800000	1.0
221	0x3f800000	1.0
222	0x3f800000	1.0
223	0xbf800000	-1.0
224	0x3f800000	1.0
225	0x3f800000	1.0
226	0x3f800000	1.0
227	0xbf800000	-1.0
228	0xbf800000	-1.0
229	0x3f800000	1.0
230	0x3f800000	1.0
231	0xbf800000	-1.0
232	0x3f800000	1.0
233	0xbf800000	-1.0
234	0xbf800000	-1.0
235	0xbf800000	-1.0
236	0xbf800000	-1.0
237	0x3f800000	1.0
238	0xbf800000	-1.0
239	0xbf800000	-1.0
240	0xbf800000	-1.0
241	0x3f800000	1.0
242	0xbf800000	-1.0
243	0xbf800000	-1.0
244	0xbf800000	-1.0
245	0xbf800000	-1.0
246	0x3f800000	1.0
247	0xbf800000	-1.0
248	0xbf800000	-1.0
249	0xbf800000	-1.0
250	0x3f800000	1.0
251	0x3f800000	1.0
252	0x3f800000	1.0
253	0x3f800000	1.0
254	0x3f800000	1.0
255	0x3f800000	1.0

arr_13 f4 [64]
0	0x3c23641b	0.0099725975
1	0x3c25d126	0.010120666
2	0x3c23236a	0.009957174
3	0x3c23288a	0.009958396
4	0x3c219e19	0.009864354
5	0x3c23831c	0.009979989
6	0x3c248f26	0.010043895
7	0x3c233252	0.009960728
8	0x3c2349cf	0.009966328
9	0x3c281f5a	0.010261381
10	0x3c260322	0.010132583
11	0x3c259e23	0.0101085035
12	0x3c2469b6	0.010034969
13	0x3c233a53	0.009962636
14	0x3c22ace4	0.009928916
15	0x3c245d73	0.010032046
16	0x3c240ba9	0.010012546
17	0x3c23d9b8	0.010000639
18	0x3c256cd8	0.010096751
19	0x3c23f67e	0.010007499
20	0x3c2297be	0.0099238735
21	0x3c222ef7	0.009898893
22	0x3c235225	0.009968315
23	0x3c23348d	0.00996126
24	0x3c230542	0.009949984
25	0x3c23ec6d	0.010005099
26	0x3c21fc45	0.009886806
27	0x3c2373a2	0.0099762995
28	0x3c2317a4	0.009954367
29	0x3c22f1c1	0.009945334
30	0x3c2483fa	0.010041231
31	0x3c242187	0.010017759
32	0x3c242b00	0.010020018
33	0x3c248d93	0.01004352
34	0x3c23994f	0.009985282
35	0x3c2261ad	0.009910983
36	0x3c23e0bf	0.010002314
37	0x3c22920b	0.009922515
38	0x3c244d89	0.010028251
39	0x3c23476e	0.009965761
40	0x3c216bc8	0.009852357
41	0x3c232773	0.009958136
42	0x3c2402dc	0.010010447
43	0x3c225eea	0.009910325
44	0x3c22d45e	0.009938328
45	0x3c24039c	0.010010626
46	0x3c24773c	0.010038193
47	0x3c232a15	0.009958764
48	0x3c250521	0.010072024
49	0x3c24ae0f	0.010051264
50	0x3c243c07	0.010024077
51	0x3c246e9f	0.01003614
52	0x3c22524d	0.009907317
53	0x3c23cbe4	0.009997342
54	0x3c2341be	0.009964405
55	0x3c24e94c	0.010065388
56	0x3c244591	0.010026352
57	0x3c24bd9d	0.010054973
58	0x3c248516	0.010041496
59	0x3c23e2fb	0.010002847
60	0x3c2599c4	0.010107461
61	0x3c227c44	0.009917323
62	0x3c237d21	0.0099785635
63	0x3c261d9f	0.010138898

arr_14 f4 [64]
0	0x3d149c85	0.03628208
1	0x3e475efd	0.19469829
2	0x3ea6a7c9	0.32549885
3	0x3db78b3f	0.08962106
4	0xbe82b950	-0.25532007
5	0x3e5ac762	0.21365121
6	0x3e880ee6	0.26573867
7	0xbd40b55e	-0.047047965
8	0x3f1e850a	0.6192175
9	0xbed95c42	-0.424532
10	0xbe682906	-0.22671899
11	0x3ed253a4	0.41079438
12	0x3ee3cbaf	0.44491336
13	0x3d4c9b8a	0.04995302
14	0x3e3a1830	0.1817329
15	0x3e954367	0.29152986
16	0x3ed46484	0.41482937
17	0x3f070859	0.5274711
18	0x3db4e5b7	0.08832877
19	0x3ece7e9d	0.40330973
20	0x3ee67e97	0.45018455
21	0xbe77894d	-0.2417347
22	0xbdbd8df0	-0.09255588
23	0x3e99aba8	0.30013776
24	0x3e55f86d	0.20895548
25	0x3e79b345	0.24384792
26	0xbe06851e	-0.13136718
27	0x3e28355a	0.16426602
28	0x3e134ea1	0.14385463
29	0xbdf361ac	-0.11883864
30	0x3e9b360c	0.30314672
31	0x3eb789ea	0.35847408
32	0xbe5224e8	-0.20521891
33	0x3ed7d813	0.4215704
34	0x3e11988e	0.14218351
35	0x3e0173a5	0.12641771
36	0x3cd315ac	0.02576717
37	0xbef2defe	-0.47435755
38	0x3d4b6b7d	0.049663056
39	0x3d0a6218	0.033784956
40	0x3d825b18	0.06365031
41	0x3d9dc2ce	0.07703172
42	0xbeb09891	-0.344914
43	0xbd76271d	-0.060095895
44	0x3e65278f	0.22378372
45	0x3ea3246e	0.3186373
46	0x3dca56cb	0.09879836
47	0xbe922e08	-0.28550744
48	0xbe155098	-0.14581525
49	0xbe628632	-0.22121504
50	0xbea2acb1	-0.31772378
51	0x3e6c7469	0.23091282
52	0xbd74ad86	-0.059735797
53	0xbebe70d2	-0.3719545
54	0x3d4d83c0	0.050174475
55	0x3d78541c	0.060627088
56	0x3d6c7178	0.0577254
57	0x3d29e63c	0.041479334
58	0x3e2520af	0.16125749
59	0xbf093ce8	-0.5360856
60	0x3d8c80a6	0.06860475
61	0x3d09131c	0.03346549
62	0x3e1ad93a	0.15121928
63	0xbc2e2019	-0.01062777

arr_15 f4 [64]
0	0x3f54a765	0.83067924
1	0x3f61826a	0.8808962
2	0x3f761f4b	0.961415
3	0x3f5b5b03	0.8568575
4	0x3f68fa22	0.9100667
5	0x3f6a505d	0.91528875
6	0x3f9ca893	1.2238945
7	0x3f606385	0.87651855
8	0x3fa3e2b6	1.2803562
9	0x3f7b374a	0.9813124
10	0x3f776285	0.96634704
11	0x3f84f49e	1.0387151
12	0x3f8b3b43	1.087746
13	0x3f4d6635	0.8023408
14	0x3f87f6d9	1.0622207
15	0x3f5a70fb	0.85328645
16	0x3f70415d	0.93849736
17	0x3f70cbe6	0.94061124
18	0x3f5ea01e	0.8696307
19	0x3f5482db	0.8301217
20	0x3f5fce78	0.8742442
21	0x3f3a16bf	0.7269096
22	0x3f5be74a	0.85899794
23	0x3f5e67e7	0.8687729
24	0x3f737ea8	0.9511514
25	0x3f80736f	1.0035228
26	0x3f39809a	0.72461855
27	0x3f66861f	0.900484
28	0x3f845ff4	1.0341783
29	0x3f7df948	0.992085
30	0x3f77ef36	0.9684938
31	0x3f91ef89	1.1401225
32	0x3f577631	0.8416472
33	0x3f7835c1	0.9695702
34	0x3f703f6c	0.93846774
35	0x3f6bfa12	0.9217845
36	0x3f83c538	1.0294561
37	0x3f8acbcd	1.0843445
38	0x3f76a117	0.96339554
39	0x3f5c538d	0.8606499
40	0x3f586a62	0.8453733
41	0x3f735dfe	0.95065296
42	0x3f8ae489	1.0850993
43	0x3f4ae919	0.7926193
44	0x3f845d02	1.0340884
45	0x3f58251f	0.8443164
46	0x3f917077	1.1362447
47	0x3f711716	0.9417585
48	0x3f6bc789	0.9210134
49	0x3f73f122	0.95289814
50	0x3f794ea4	0.9738562
51	0x3f766e0e	0.9626168
52	0x3f5999f4	0.8500054
53	0x3f60babe	0.87784946
54	0x3f567f0c	0.8378761
55	0x3f4b35a5	0.7937873
56	0x3f4fa3eb	0.81109494
57	0x3f83cb62	1.0296443
58	0x3f66d7ac	0.9017284
59	0x3f717917	0.94325393
60	0x3f862b07	1.0481881
61	0x3f552217	0.8325514
62	0x3f68706f	0.9079656
63	0x3f4849db	0.78237695

arr_16 f4 [64]
0	0x3e418dec	0.18901795
1	0x4128d0eb	10.551005
2	0xc141f35a	-12.121912
3	0xc11f768b	-9.966441
4	0x40b0329d	5.5061784
5	0x41597a4d	13.592359
6	0x407b5e67	3.9276369
7	0xc10da9dc	-8.85397
8	0x41146c1c	9.276394
9	0xc10684cc	-8.407421
10	0x41d80caa	27.006184
11	0x3fbd0108	1.476594
12	0x41751f15	15.320088
13	0xc13767ea	-11.46287
14	0x4070485d	3.7544167
15	0xc187432e	-16.907803
16	0x409919de	4.7844076
17	0x40712739	3.768019
18	0x412574a2	10.340975
19	0xc1bcb6bb	-23.589224
20	0xc175c4be	-15.360533
21	0x41a9bf9f	21.218565
22	0x402f702e	2.741222
23	0x40cd7a84	6.4212055
24	0xc108808c	-8.5313835
25	0x3ec107db	0.37701306
26	0xc1074c3f	-8.456115
27	0x41ba08b3	23.254248
28	0x411c8b93	9.784076
29	0x4187902a	16.945393
30	0x41afbd9b	21.96758
31	0xc1ff8ad4	-31.942787
32	0xc10cc5ec	-8.798321
33	0xc013b7ee	-2.3081012
34	0xc196bbfb	-18.841787
35	0xc0e39294	-7.111643
36	0x4012648f	2.2873876
37	0xc0f35b59	-7.604901
38	0x40e56f62	7.1698465
39	0x400ab7e5	2.167474
40	0x40658a85	3.5865796
41	0xc0144b00	-2.3170776
42	0x40869f03	4.2069106
43	0x413eac27	11.917029
44	0xc1a74c51	-20.912264
45	0xc1a9e9a7	-21.239088
46	0xc0a0870c	-5.016485
47	0x4192c91f	18.348204
48	0xc18b1921	-17.38727
49	0xc10a69d9	-8.650842
50	0xc10ab3c0	-8.668884
51	0xc105ec48	-8.370186
52	0xc03e8545	-2.9768841
53	0xc1a66045	-20.797007
54	0xc196b9ea	-18.840778
55	0x3fea6ea7	1.8315018
56	0x3f4417ae	0.7659863
57	0xc135c486	-11.360479
58	0x408b7f72	4.3593073
59	0x40cd5ca9	6.417561
60	0x40cf5b73	6.479913
61	0xc0bdcc52	-5.9311914
62	0x416fc051	14.984452
63	0x402bbf53	2.6835525

arr_17 f4 [64]
0	0x3cd82b45	0.02638782
1	0x3cdc29ca	0.026875395
2	0x3ca5353e	0.02016699
3	0x3ce28a66	0.027653884
4	0x3cb8cf12	0.022559676
5	0x3cb52b91	0.0221155
6	0x3cb4b935	0.02206097
7	0x3cc33e16	0.023833316
8	0x3c92439d	0.017854506
9	0x3ce1be6a	0.027556617
10	0x3cb977a2	0.022640053
11	0x3cae9a09	0.021313684
12	0x3cb0cb89	0.021581428
13	0x3ce74e74	0.028235652
14	0x3c88b04c	0.016685627
15	0x3cde68d2	0.027149592
16	0x3cbacc2d	0.022802437
17	0x3cb2ab82	0.021810297
18	0x3cc8a4e8	0.024492696
19	0x3ce5d706	0.028056633
20	0x3cc7b09d	0.024376208
21	0x3cbf09f6	0.02332018
22	0x3cdbf715	0.026851216
23	0x3cd5656f	0.026049344
24	0x3ca976a1	0.02068645
25	0x3c908e24	0.017645903
26	0x3d07a995	0.03312071
27	0x3cb543d8	0.022127077
28	0x3ca94fef	0.020667998
29	0x3cbf4fa4	0.023353405
30	0x3caedb37	0.021344764
31	0x3c8f6c02	0.017507557
32	0x3cdd9cfb	0.027052393
33	0x3cd8c221	0.026459755
34	0x3cde64bf	0.027147649
35	0x3ceb3fe9	0.028716998
36	0x3cc08cb4	0.023504592
37	0x3cc9726a	0.02459069
38	0x3cb7bbef	0.02242848
39	0x3ce2bfea	0.027679402
40	0x3ccba54a	0.02485909
41	0x3cc9d1d5	0.024636189
42	0x3cc4b41d	0.024011666
43	0x3cc5b52f	0.024134247
44	0x3ccdee03	0.025137907
45	0x3ce74f6c	0.028236113
46	0x3cb98b07	0.022649301
47	0x3cd16cb4	0.025564529
48	0x3c85fd76	0.016356211
49	0x3c94e54c	0.018175744
50	0x3cdaf33c	0.026727311
51	0x3cac3ac4	0.021024115
52	0x3cda79cd	0.026669407
53	0x3ca1ef45	0.019767413
54	0x3cb55302	0.022134308
55	0x3ccf7ade	0.025327142
56	0x3cc184f6	0.023622971
57	0x3cd86f2a	0.026420195
58	0x3cb7860c	0.022402786
59	0x3cc18cea	0.023626763
60	0x3cb3badb	0.021939686
61	0x3cf02a38	0.029317006
62	0x3ce2b3bc	0.027673595
63	0x3ceb8238	0.028748617

arr_18 (column-major) f4 [64, 128]
0	0x3f800000	1.0
1	0xbf800000	-1.0
2	0xbf800000	-1.0
3	0xbf800000	-1.0
4	0xbf800000	-1.0
5	0x3f800000	1.0
6	0x3f800000	1.0
7	0x3f800000	1.0
8	0xbf800000	-1.0
9	0xbf800000	-1.0
10	0xbf800000	-1.0
11	0x3f800000	1.0
12	0xbf800000	-1.0
13	0xbf800000	-1.0
14	0xbf800000	-1.0
15	0xbf800000	-1.0
16	0x3f800000	1.0
17	0x3f800000	1.0
18	0x3f800000	1.0
19	0x3f800000	1.0
20	0x3f800000	1.0
21	0xbf800000	-1.0
22	0x3f800000	1.0
23	0xbf800000	-1.0
24	0xbf800000	-1.0
25	0xbf800000	-1.0
26	0x3f800000	1.0
27	0xbf800000	-1.0
28	0xbf800000	-1.0
29	0x3f800000	1.0
30	0xbf800000	-1.0
31	0x3f800000	1.0
32	0x3f800000	1.0
33	0x3f800000	1.0
34	0xbf800000	-1.0
35	0xbf800000	-1.0
36	0x3f800000	1.0
37	0x3f800000	1.0
38	0x3f800000	1.0
39	0x3f800000	1.0
40	0xbf800000	-1.0
41	0xbf800000	-1.0
42	0x3f800000	1.0
43	0xbf800000	-1.0
44	0x3f800000	1.0
45	0x3f800000	1.0
46	0x3f800000	1.0
47	0xbf800000	-1.0
48	0x3f800000	1.0
49	0x3f800000	1.0
50	0xbf800000	-1.0
51	0x3f800000	1.0
52	0xbf800000	-1.0
53	0x3f800000	1.0
54	0x3f800000	1.0
55	0xbf800000	-1.0
56	0x3f800000	1.0
57	0x3f800000	1.0
58	0xbf800000	-1.0
59	0xbf800000	-1.0
60	0x3f800000	1.0
61	0xbf800000	-1.0
62	0x3f800000	1.0
63	0x3f800000	1.0
64	0xbf800000	-1.0
65	0xbf800000	-1.0
66	0xbf800000	-1.0
67	0xbf800000	-1.0
68	0xbf800000	-1.0
69	0xbf800000	-1.0
70	0xbf800000	-1.0
71	0xbf800000	-1.0
72	0x3f800000	1.0
73	0xbf800000	-1.0
74	0x3f800000	1.0
75	0x3f800000	1.0
76	0x3f800000	1.0
77	0x3f800000	1.0
78	0xbf800000	-1.0
79	0x3f800000	1.0
80	0x3f800000	1.0
81	0x3f800000	1.0
82	0xbf800000	-1.0
83	0xbf800000	-1.0
84	0xbf800000	-1.0
85	0x3f800000	1.0
86	0x3f800000	1.0
87	0xbf800000	-1.0
88	0x3f800000	1.0
89	0xbf800000	-1.0
90	0xbf800000	-1.0
91	0xbf800000	-1.0
92	0x3f800000	1.0
93	0x3f800000	1.0
94	0x3f800000	1.0
95	0x3f800000	1.0
96	0xbf800000	-1.0
97	0xbf800000	-1.0
98	0x3f800000	1.0
99	0x3f800000	1.0
100	0xbf800000	-1.0
101	0x3f800000	1.0
102	0xbf800000	-1.0
103	0xbf800000	-1.0
104	0xbf800000	-1.0
105	0xbf800000	-1.0
106	0x3f800000	1.0
107	0x3f800000	1.0
108	0xbf800000	-1.0
109	0xbf800000	-1.0
110	0x3f800000	1.0
111	0xbf800000	-1.0
112	0x3f800000	1.0
113	0x3f800000	1.0
114	0x3f800000	1.0
115	0x3f800000	1.0
116	0x3f800000	1.0
117	0x3f800000	1.0
118	0x3f800000	1.0
119	0xbf800000	-1.0
120	0x3f800000	1.0
121	0x3f800000	1.0
122	0xbf800000	-1.0
123	0xbf800000	-1.0
124	0x3f800000	1.0
125	0x3f800000	1.0
126	0xbf800000	-1.0
127	0xbf800000	-1.0
128	0x3f800000	1.0
129	0x3f800000	1.0
130	0xbf800000	-1.0
131	0xbf800000	-1.0
132	0x3f800000	1.0
133	0xbf800000	-1.0
134	0x3f800000	1.0
135	0x3f800000	1.0
136	0xbf800000	-1.0
137	0x3f800000	1.0
138	0x3f800000	1.0
139	0x3f800000	1.0
140	0x3f800000	1.0
141	0x3f800000	1.0
142	0x3f800000	1.0
143	0xbf800000	-1.0
144	0xbf800000	-1.0
145	0x3f800000	1.0
146	0x3f800000	1.0
147	0xbf800000	-1.0
148	0x3f800000	1.0
149	0x3f800000	1.0
150	0xbf800000	-1.0
151	0x3f800000	1.0
152	0xbf800000	-1.0
153	0x3f800000	1.0
154	0x3f800000	1.0
155	0xbf800000	-1.0
156	0x3f800000	1.0
157	0x3f800000	1.0
158	0x3f800000	1.0
159	0x3f800000	1.0
160	0xbf800000	-1.0
161	0xbf800000	-1.0
162	0xbf800000	-1.0
163	0xbf800000	-1.0
164	0x3f800000	1.0
165	0xbf800000	-1.0
166	0xbf800000	-1.0
167	0xbf800000	-1.0
168	0x3f800000	1.0
169	0x3f800000	1.0
170	0xbf800000	-1.0
171	0x3f800000	1.0
172	0x3f800000	1.0
173	0xbf800000	-1.0
174	0xbf800000	-1.0
175	0xbf800000	-1.0
176	0xbf800000	-1.0
177	0xbf800000	-1.0
178	0x3f800000	1.0
179	0x3f800000	1.0
180	0xbf800000	-1.0
181	0xbf800000	-1.0
182	0x3f800000	1.0
183	0xbf800000	-1.0
184	0xbf800000	-1.0
185	0x3f800000	1.0
186	0x3f800000	1.0
187	0x3f800000	1.0
188	0x3f800000	1.0
189	0xbf800000	-1.0
190	0x3f800000	1.0
191	0x3f800000	1.0
192	0x3f800000	1.0
193	0x3f800000	1.0
194	0xbf800000	-1.0
195	0x3f800000	1.0
196	0x3f800000	1.0
197	0xbf800000	-1.0
198	0x3f800000	1.0
199	0x3f800000	1.0
200	0x3f800000	1.0
201	0x3f800000	1.0
202	0x3f800000	1.0
203	0xbf800000	-1.0
204	0x3f800000	1.0
205	0x3f800000	1.0
206	0xbf800000	-1.0
207	0xbf800000	-1.0
208	0xbf800000	-1.0
209	0xbf800000	-1.0
210	0x3f800000	1.0
211	0x3f800000	1.0
212	0x3f800000	1.0
213	0xbf800000	-1.0
214	0xbf800000	-1.0
215	0x3f800000	1.0
216	0xbf800000	-1.0
217	0xbf800000	-1.0
218	0x3f800000	1.0
219	0x3f800000	1.0
220	0xbf800000	-1.0
221	0x3f800000	1.0
222	0xbf800000	-1.0
223	0xbf800000	-1.0
224	0xbf800000	-1.0
225	0x3f800000	1.0
226	0x3f800000	1.0
227	0xbf800000	-1.0
228	0x3f800000	1.0
229	0xbf800000	-1.0
230	0x3f800000	1.0
231	0xbf800000	-1.0
232	0xbf800000	-1.0
233	0xbf800000	-1.0
234	0xbf800000	-1.0
235	0xbf800000	-1.0
236	0xbf800000	-1.0
237	0xbf800000	-1.0
238	0xbf800000	-1.0
239	0x3f800000	1.0
240	0xbf800000	-1.0
241	0x3f800000	1.0
242	0xbf800000	-1.0
243	0xbf800000	-1.0
244	0xbf800000	-1.0
245	0x3f800000	1.0
246	0xbf800000	-1.0
247	0x3f800000	1.0
248	0xbf800000	-1.0
249	0xbf800000	-1.0
250	0xbf800000	-1.0
251	0x3f800000	1.0
252	0x3f800000	1.0
253	0xbf800000	-1.0
254	0x3f800000	1.0
255	0x3f800000	1.0

arr_19 f4 [128]
0	0x3c200950	0.009767845
1	0x3c23e280	0.010002732
2	0x3c26bc9a	0.010176802
3	0x3c257c47	0.010100431
4	0x3c23795c	0.009977665
5	0x3c2344db	0.009965147
6	0x3c1d4788	0.009599574
7	0x3c248c7f	0.0100432625
8	0x3c16ee2a	0.009212056
9	0x3c25b5c4	0.010114137
10	0x3c1cee22	0.00957826
11	0x3c19c9d1	0.009386496
12	0x3c1e02c9	0.009644219
13	0x3c1b95cc	0.009496164
14	0x3c267fd5	0.0101623135
15	0x3c1e9410	0.009678856
16	0x3c2327ce	0.009958221
17	0x3c1c7d9a	0.00955143
18	0x3c26e1c8	0.010185666
19	0x3c24ee5e	0.010066597
20	0x3c27dd27	0.010245598
21	0x3c27a229	0.010231533
22	0x3c288f91	0.010288135
23	0x3c216725	0.009851252
24	0x3c17027d	0.009216902
25	0x3c231d7f	0.009955763
26	0x3c21d0a6	0.009876406
27	0x3c207412	0.009793298
28	0x3c22edaa	0.009944359
29	0x3c295954	0.010336239
30	0x3c20aaa1	0.009806306
31	0x3c22aabd	0.0099284025
32	0x3c252cc6	0.010081476
33	0x3c24e83c	0.010065135
34	0x3c25dd9c	0.010123637
35	0x3c20fa5f	0.009825318
36	0x3c20b63f	0.009809076
37	0x3c230156	0.009949049
38	0x3c24044b	0.010010789
39	0x3c24588f	0.01003088
40	0x3c29a4ca	0.01035423
41	0x3c248f19	0.010043883
42	0x3c25d6e6	0.010122037
43	0x3c231aa2	0.00995508
44	0x3c263155	0.010143598
45	0x3c26a3db	0.010170902
46	0x3c21de79	0.009879702
47	0x3c23b13a	0.009990985
48	0x3c217dc0	0.009856641
49	0x3c27d821	0.0102444
50	0x3c289b29	0.010290899
51	0x3c234cc3	0.009967032
52	0x3c24c2e8	0.010056235
53	0x3c1fb71b	0.009748246
54	0x3c25fec7	0.010131544
55	0x3c1dab2a	0.009623328
56	0x3c22db0b	0.009939919
57	0x3c2375be	0.009976802
58	0x3c261ddf	0.010138958
59	0x3c236b0c	0.009974252
60	0x3c2386fd	0.009980914
61	0x3c1fcc09	0.009753236
62	0x3c24ac40	0.010050833
63	0x3c258b7c	0.010104056
64	0x3c2bcd8c	0.010486018
65	0x3c1fa93d	0.009744939
66	0x3c263202	0.010143759
67	0x3c26ab2c	0.0101726465
68	0x3c301f7d	0.010749695
69	0x3c223031	0.009899185
70	0x3c244616	0.010026475
71	0x3c2556e9	0.010091522
72	0x3c21ef09	0.009883651
73	0x3c23f27d	0.010006544
74	0x3c249ca0	0.010047108
75	0x3c2626c5	0.010141079
76	0x3c26ed17	0.010188363
77	0x3c22a3d0	0.009926751
78	0x3c2512f4	0.01007532
79	0x3c23a222	0.009987386
80	0x3c253037	0.010082296
81	0x3c252765	0.010080193
82	0x3c22b4f5	0.009930839
83	0x3c225c39	0.009909683
84	0x3c229c10	0.0099249035
85	0x3c2a0280	0.010376573
86	0x3c219753	0.009862739
87	0x3c21da87	0.009878761
88	0x3c21c272	0.0098730195
89	0x3c247e2b	0.010039846
90	0x3c20affc	0.009807583
91	0x3c1fe5a7	0.009759343
92	0x3c1b0dc5	0.009463732
93	0x3c24fdbc	0.010070261
94	0x3c20856d	0.009797436
95	0x3c27df3d	0.010246095
96	0x3c270cff	0.01019597
97	0x3c1e0f4d	0.009647203
98	0x3c23f4c9	0.010007092
99	0x3c283b96	0.010268113
100	0x3c21394c	0.009840321
101	0x3c24c3b3	0.010056424
102	0x3c21f35f	0.009884684
103	0x3c243110	0.010021463
104	0x3c222d18	0.0098984465
105	0x3c23e84e	0.010004116
106	0x3c23ed34	0.010005284
107	0x3c211609	0.009831914
108	0x3c1fc63b	0.009751852
109	0x3c24c667	0.010057068
110	0x3c22eeb3	0.009944606
111	0x3c260027	0.010131872
112	0x3c25c7c8	0.010118432
113	0x3c214b93	0.009844678
114	0x3c2483f6	0.010041228
115	0x3c245eb4	0.010032345
116	0x3c23a961	0.009989114
117	0x3c1d3c0d	0.009596837
118	0x3c250963	0.010073039
119	0x3c25cd2d	0.0101197185
120	0x3c1f4267	0.009720421
121	0x3c25eca1	0.0101272175
122	0x3c22fff2	0.009948717
123	0x3c1e894f	0.009676292
124	0x3c204073	0.009780991
125	0x3c231d77	0.009955755
126	0x3c2131b8	0.009838514
127	0x3c1e65de	0.009667842

arr_20 f4 [128]
0	0x3e733b26	0.23753032
1	0xbe94dde8	-0.2907555
2	0x3e10bcdb	0.14134543
3	0xbecda959	-0.40168265
4	0x3c9f0ec1	0.019416215
5	0x3e7e45de	0.2483134
6	0x3d040c54	0.03223832
7	0x3e8d8bbe	0.27645677
8	0xbefb4dfb	-0.49082932
9	0xbe207e0c	-0.15673083
10	0x3e2672fe	0.16254804
11	0x3e10b6f8	0.14132297
12	0xbe528475	-0.20558341
13	0xbd5ad6ee	-0.05342763
14	0x3cb4458d	0.02200582
15	0xbbe62dfc	-0.0070245247
16	0xbd833369	-0.0640629
17	0x3dd46a1d	0.10371802
18	0x3e4a73f8	0.19770801
19	0x3f083a7f	0.5321426
20	0x3dcf3f5c	0.10119507
21	0xbd689894	-0.056786135
22	0x3d9949c6	0.07484774
23	0x3e902f53	0.28161106
24	0xbeaa6bd5	-0.33285394
25	0x3d0b7376	0.03404566
26	0x3dffa07d	0.124817826
27	0xbe1d4524	-0.15358406
28	0x3e0f4b9d	0.13993688
29	0x3ead357c	0.33829868
30	0x3ca545a5	0.02017481
31	0xbe23f74e	-0.16012308
32	0x3e88fc20	0.26754856
33	0xbe9168c2	-0.28400236
34	0xbe4daa4f	-0.20084499
35	0x3ed84626	0.4224102
36	0xbd45665a	-0.048193313
37	0xbe52144f	-0.2051556
38	0xbe93d580	-0.28873825
39	0xbd84de16	-0.06487672
40	0x3edd15af	0.43180606
41	0x3e9cdd13	0.30637416
42	0x3e0a7554	0.1352132
43	0xbcca73b2	-0.024713371
44	0xbd8455f4	-0.06461707
45	0xbe1c0498	-0.15236127
46	0x3e3095f8	0.17244709
47	0x3ef0b3ac	0.4701208
48	0x3e52d285	0.2058812
49	0xbc1594d3	-0.009129721
50	0xbd75a97c	-0.059976086
51	0x3d813b4b	0.06310137
52	0xbe366512	-0.17811993
53	0x3da985d0	0.08277476
54	0x3ddcfbb1	0.10790194
55	0x3eabdfd9	0.3356922
56	0xbd96f354	-0.0737063
57	0x3defcc4b	0.11708888
58	0x3e8cb95d	0.2748517
59	0x3cf02f0d	0.02931931
60	0x3df873ac	0.12131438
61	0x3ee0c33f	0.4389896
62	0xbbecd212	-0.007227191
63	0xbe1fccee	-0.15605518
64	0x3ec5dfb6	0.3864724
65	0xbd8179cd	-0.0632206
66	0xbe7cdf12	-0.2469447
67	0xbc95b231	-0.018273445
68	0x3e12e212	0.14344051
69	0xbecf64ad	-0.40506497
70	0xbe20863c	-0.15676206
71	0xbe1601b3	-0.14649086
72	0xbe33b419	-0.1754917
73	0xbdfc2c9e	-0.123131976
74	0x3eda6930	0.42658377
75	0xbd661f38	-0.056182116
76	0x3e8bb41e	0.27285856
77	0x3e76828d	0.24073239
78	0x3e82c979	0.25544336
79	0x3dee6a74	0.11641398
80	0xbecd08c8	-0.40045762
81	0x3eda1b4e	0.42598957
82	0x3f150aff	0.58219904
83	0x3eb16148	0.34644532
84	0x3d4ddc37	0.05025884
85	0x3ea1b7bf	0.315855
86	0x3e3acb6c	0.18241662
87	0x3cab744a	0.020929474
88	0xbc73ea37	-0.014887384
89	0xbd8dec8c	-0.06929883
90	0xbd5a3634	-0.05327435
91	0x3c2bce3f	0.010486185
92	0xbe5d5dff	-0.21617888
93	0x3d97b74b	0.07408007
94	0xbe6c66be	-0.23086068
95	0xbee131e1	-0.43983367
96	0xbe3295e5	-0.17439993
97	0xbe2b06e1	-0.16701843
98	0xbdb676f4	-0.08909407
99	0xbe703683	-0.23458295
100	0xbdbb6d7d	-0.091517426
101	0x3db97913	0.09056296
102	0xbedd305c	-0.43200958
103	0x3e8147ed	0.25250188
104	0xbe715a7c	-0.23569673
105	0x3c79636f	0.015221461
106	0x3e9ab140	0.30213356
107	0x3e0e74f2	0.13911799
108	0xbe720e79	-0.23638333
109	0x3e2c32d3	0.16816263
110	0xbddb1753	-0.10697808
111	0xbd86e6e9	-0.06587011
112	0xbe3475ff	-0.17623137
113	0xbe9ca6bc	-0.30595958
114	0xbee07202	-0.4383698
115	0xbe309f42	-0.17248252
116	0x3ebceede	0.3690099
117	0xbe253818	-0.1613468
118	0xbe851e79	-0.2599981
119	0x3dd858b1	0.105637915
120	0xbd337566	-0.04381313
121	0x3e719070	0.23590255
122	0xbe2050f1	-0.15655877
123	0xbe63f3f7	-0.22261034
124	0x3d8f20ad	0.06988654
125	0xbea8198d	-0.32831994
126	0x3db3590a	0.08757217
127	0x3eec3922	0.4613734

arr_21 f4 [128]
0	0x3f6964f5	0.91169673
1	0x3f563970	0.8368139
2	0x3f48ec0d	0.78485185
3	0x3f466883	0.7750322
4	0x3f4bfb30	0.79680157
5	0x3f55db49	0.8353773
6	0x3f541e5d	0.8285883
7	0x3f3b0e0d	0.73068315
8	0x3f74976b	0.95543545
9	0x3f3be63c	0.73398185
10	0x3f5b44fc	0.85652137
11	0x3f47cc59	0.78046185
12	0x3f6e7670	0.9314947
13	0x3f547b43	0.8300058
14	0x3f67b214	0.905061
15	0x3f45235e	0.7700709
16	0x3f3feb9e	0.749689
17	0x3f6a3247	0.9148297
18	0x3f87a064	1.0595822
19	0x3f6e6625	0.9312461
20	0x3f549aa3	0.83048457
21	0x3f8936f6	1.0719898
22	0x3f6b2633	0.9185516
23	0x3f730639	0.9493137
24	0x3f3f731e	0.7478503
25	0x3f5038c5	0.81336623
26	0x3f3a8aba	0.7286793
27	0x3f4808d7	0.7813849
28	0x3f5111e9	0.81667954
29	0x3f472b47	0.7780041
30	0x3f52200a	0.8208014
31	0x3f74de4f	0.95651716
32	0x3f4f62b4	0.81009984
33	0x3f620acc	0.88297725
34	0x3f478c1f	0.7794818
35	0x3f63617f	0.8882064
36	0x3f58d940	0.847065
37	0x3f8ccd62	1.1000178
38	0x3f670d0c	0.9025428
39	0x3f65862f	0.8965787
40	0x3f7ab327	0.97929615
41	0x3f5e31fe	0.8679503
42	0x3f4f598d	0.8099602
43	0x3f54cf88	0.8312917
44	0x3f5be483	0.85895556
45	0x3f730212	0.94925034
46	0x3f6220bf	0.88331217
47	0x3f62f4d2	0.88654816
48	0x3f5defd7	0.8669409
49	0x3f5b6832	0.85705864
50	0x3f57a867	0.84241337
51	0x3f5edb2b	0.87053174
52	0x3f6b41ff	0.9189758
53	0x3f6042ae	0.87601745
54	0x3f50b2d7	0.8152289
55	0x3f6d9757	0.9280905
56	0x3f4de580	0.80428314
57	0x3f559897	0.8343596
58	0x3f711824	0.9417746
59	0x3f5a05f2	0.8516532
60	0x3f4bdb44	0.7963145
61	0x3f5ce4d2	0.8628665
62	0x3f6ec186	0.93264043
63	0x3f36a030	0.71338177
64	0x3f6706de	0.90244853
65	0x3f3cd228	0.73758173
66	0x3f800cf3	1.0003952
67	0x3f55123b	0.8323094
68	0x3f496b35	0.7867921
69	0x3f6f350b	0.9344031
70	0x3f811a8c	1.0086226
71	0x3f4e550f	0.8059854
72	0x3f5fa882	0.873665
73	0x3f466de8	0.77511454
74	0x3f6c5e86	0.9233173
75	0x3f7b5bce	0.9818696
76	0x3f4b54f1	0.79426485
77	0x3f561ec9	0.83640724
78	0x3f540613	0.8282177
79	0x3f518d8c	0.8185661
80	0x3f628a81	0.8849259
81	0x3f60484e	0.8761033
82	0x3f59de7e	0.8510512
83	0x3f41e365	0.757376
84	0x3f860145	1.0469137
85	0x3f3d9009	0.74047905
86	0x3f43cb30	0.76481915
87	0x3f3a212c	0.72706866
88	0x3f56e312	0.8394023
89	0x3f6b2c79	0.91864735
90	0x3f5a0c0f	0.8517465
91	0x3f71984f	0.9437303
92	0x3f319bf4	0.6937859
93	0x3f848abe	1.0354841
94	0x3f639d3b	0.8891179
95	0x3f747e96	0.95505655
96	0x3f7a18b3	0.9769394
97	0x3f511f25	0.8168815
98	0x3f4b2d41	0.79365927
99	0x3f4e5875	0.80603725
100	0x3f50bcef	0.8153829
101	0x3f5a348b	0.85236424
102	0x3f583917	0.8446211
103	0x3f802ddc	1.0013995
104	0x3f636014	0.8881848
105	0x3f73fd63	0.9530851
106	0x3f79e398	0.97612906
107	0x3f52e2cf	0.8237733
108	0x3f55aab2	0.83463585
109	0x3f67b1d6	0.9050573
110	0x3f8129d5	1.0090891
111	0x3f534892	0.8253261
112	0x3f5e804e	0.8691453
113	0x3f848794	1.0353875
114	0x3f7e73e4	0.99395585
115	0x3f429003	0.76000994
116	0x3f53aabb	0.8268239
117	0x3f4615fd	0.773773
118	0x3f515dbf	0.8178367
119	0x3f361658	0.71127844
120	0x3f5385d9	0.8262611
121	0x3f6f5f42	0.93504727
122	0x3f838eeb	1.027799
123	0x3f5abfd6	0.8544897
124	0x3f6f54ca	0.9348875
125	0x3f63d62e	0.8899869
126	0x3f5812a3	0.8440344
127	0x3f71cbe0	0.94451714

arr_22 f4 [128]
0	0x3ed533c3	0.41641054
1	0xbf999ac1	-1.2000352
2	0x3f534f21	0.82542616
3	0xbfa8ca9a	-1.3186829
4	0xbfed2365	-1.8526427
5	0xbf586cd3	-0.8454105
6	0xbfb266a8	-1.3937578
7	0x3fcb2026	1.5869186
8	0x406b060b	3.6722438
9	0x3de1f156	0.11032359
10	0xbf939bc1	-1.1531907
11	0xbfea74da	-1.831691
12	0xbd94287e	-0.07234286
13	0xbf154547	-0.58308834
14	0x4009a8fd	2.1509392
15	0xbff76eb1	-1.9330655
16	0x3fd0ad2a	1.6302845
17	0xbfc0d159	-1.5063888
18	0x3f91af73	1.1381668
19	0x3fa4bc3e	1.2869947
20	0x3f2e4d04	0.68086267
21	0x3dca3452	0.098732606
22	0x3f8f1f37	1.1181401
23	0x400b3f56	2.1757407
24	0xbbf2f081	-0.007413924
25	0x3f91c9b3	1.1389679
26	0x3f572f22	0.84056294
27	0xbf12c859	-0.57336956
28	0x3e8374a9	0.25674942
29	0xbff00264	-1.875073
30	0xbebd623e	-0.36989015
31	0xc0077680	-2.1166077
32	0xbf2d1f8f	-0.6762628
33	0xbd8bb663	-0.06821897
34	0xbfcc2c62	-1.5951045
35	0x40132c81	2.2995913
36	0x3ec9f7a1	0.39446738
37	0xbfa71d4c	-1.3055816
38	0x40685930	3.6304436
39	0xbf27d4f3	-0.6555931
40	0xbf56adfd	-0.83859235
41	0xbf94132a	-1.1568348
42	0x40405694	3.0052843
43	0x3f5c7710	0.86119175
44	0xbf4dc5c9	-0.8037992
45	0xbfaf5096	-1.3696468
46	0x3dd0fca0	0.102044344
47	0x3ed38362	0.41311175
48	0xbf872396	-1.0557735
49	0x3f18d1b8	0.59695005
50	0xbfc5ef2a	-1.5463612
51	0x3f51891d	0.81849843
52	0xbf42c0ab	-0.7607524
53	0x3f81c187	1.0137185
54	0x3f19e6f4	0.6011803
55	0x3f9fd47d	1.2486721
56	0x3f637562	0.88850987
57	0x3f8fece6	1.1244171
58	0xbf0cc3ee	-0.54986465
59	0x3d71c881	0.059029106
60	0xbe9d24b7	-0.30692074
61	0x3f851f5c	1.0400195
62	0xbf3e0a45	-0.7423442
63	0xbf0ae931	-0.5426207
64	0x3f037644	0.51352334
65	0x3f029917	0.51014847
66	0x4056a815	3.354009
67	0xbf3891bb	-0.7209737
68	0x3ff375b8	1.90203
69	0xc02b777a	-2.6791673
70	0x3e4c5fef	0.19958471
71	0xc0030138	-2.0469494
72	0xc0006d3d	-2.0066674
73	0xbe3b6104	-0.18298727
74	0x3fb04c18	1.3773222
75	0xc0650de9	-3.578974
76	0x406e14fa	3.7200303
77	0xc04630c3	-3.0967262
78	0x3f57895b	0.8419396
79	0x3facb07c	1.3491359
80	0x3f6360e3	0.8881971
81	0x40952ed4	4.6619663
82	0x3d207536	0.03917428
83	0x3f71f93e	0.9452094
84	0xbfa87f6f	-1.316389
85	0xc0916b22	-4.5443277
86	0xbd8f2387	-0.06989198
87	0xbfa2aeb7	-1.2709569
88	0x3fac8700	1.3478699
89	0xbf2b5bab	-0.6693675
90	0x3f9a7104	1.206574
91	0xbfa72192	-1.305712
92	0x3f9e11e6	1.2349212
93	0xbfd7b89a	-1.6853211
94	0x3f7d1c5e	0.9887141
95	0x3f874578	1.0568075
96	0x3ff5a575	1.9191118
97	0x3db07ad4	0.086171776
98	0xc04634d7	-3.096975
99	0xbf5b4dc0	-0.8566551
100	0x3f8c3cca	1.0956051
101	0x4016e44a	2.3576837
102	0xc0071031	-2.1103632
103	0x3f2bb17a	0.6706768
104	0xc0287a8c	-2.6324797
105	0x3f943630	1.1579037
106	0x406759a8	3.6148472
107	0xc04e5ca1	-3.2244036
108	0xbfa4e974	-1.2883744
109	0xbfb02801	-1.3762208
110	0xbf9d444d	-1.2286469
111	0xc00450c5	-2.0674298
112	0xbfc65479	-1.5494529
113	0x3f6c4cdb	0.9230477
114	0x3fff8a19	1.9964019
115	0xbe53e2c2	-0.2069197
116	0x3fd3dc25	1.6551558
117	0x4047a93b	3.119704
118	0xbf67e731	-0.90587145
119	0xc013a61e	-2.307014
120	0xbf53016c	-0.82424045
121	0xbfc8ebe6	-1.569699
122	0xc00a06c8	-2.156664
123	0xbffbb628	-1.9664965
124	0xbf0358b2	-0.51307213
125	0xbfa3fd15	-1.281161
126	0x3f08e712	0.53477585
127	0x3f67bb73	0.905204

arr_23 f4 [128]
0	0x3db1fc23	0.086906694
1	0x3da9dc91	0.08294023
2	0x3dce0bcf	0.10060846
3	0x3dc44c2b	0.095848404
4	0x3de3e746	0.11128096
5	0x3dd9cb2e	0.106344566
6	0x3dd3c361	0.1034
7	0x3d9611fe	0.073276505
8	0x3dfde05e	0.1239631
9	0x3de82bec	0.113365024
10	0x3dd0d7bd	0.10197399
11	0x3dd8ca21	0.10585428
12	0x3db19c47	0.08672386
13	0x3dd15e82	0.10223104
14	0x3df443fc	0.119270295
15	0x3def682a	0.116897896
16	0x3dc6fb64	0.09715918
17	0x3dc78853	0.09742799
18	0x3dba6d45	0.09102873
19	0x3d9e529e	0.07730602
20	0x3df0b28a	0.117528036
21	0x3dd514db	0.104043685
22	0x3dc2b8e4	0.09507921
23	0x3dc187a5	0.094497
24	0x3de76912	0.112993374
25	0x3dc16fe6	0.09445171
26	0x3dde12bf	0.10843419
27	0x3dce75c2	0.10081054
28	0x3de9f95e	0.11424516
29	0x3dc3b5bb	0.09556147
30	0x3dbdce3b	0.09267851
31	0x3de7bc76	0.11315243
32	0x3daaa2d6	0.0833184
33	0x3db88613	0.09009948
34	0x3d959f91	0.073058255
35	0x3dca18d2	0.09868015
36	0x3de3d3fe	0.11124419
37	0x3dccd5c7	0.10001712
38	0x3dd3a66a	0.10334475
39	0x3dbe5e76	0.09295361
40	0x3dcd159f	0.100138895
41	0x3dcde9d1	0.100543626
42	0x3de3a249	0.11114938
43	0x3deb4fdf	0.114898436
44	0x3dc32b35	0.095297255
45	0x3dc671ae	0.096896514
46	0x3db5d59a	0.08878632
47	0x3db99374	0.090613276
48	0x3dfe1e28	0.124080956
49	0x3dddea8a	0.108357504
50	0x3ddd3ec9	0.10802991
51	0x3dc1f676	0.09470837
52	0x3dc5a1fc	0.09650037
53	0x3dc5c14f	0.09656011
54	0x3dda2300	0.10651207
55	0x3dd21b91	0.10259164
56	0x3dcfec2e	0.101524696
57	0x3df5f633	0.120098494
58	0x3dd22856	0.102616
59	0x3dcb57e4	0.09928873
60	0x3ddb9e00	0.107234955
61	0x3dbedb9f	0.09319233
62	0x3dd6d10d	0.10489092
63	0x3daf4dc5	0.08559755
64	0x3dbd70aa	0.092500046
65	0x3de02360	0.10944247
66	0x3db3080b	0.087417684
67	0x3dc09391	0.09403146
68	0x3e100b52	0.14066818
69	0x3ddc784b	0.107651316
70	0x3dd51a45	0.10405401
71	0x3dd5d91c	0.10441801
72	0x3dc6eb88	0.09712893
73	0x3dbe36ed	0.0928782
74	0x3dc54d72	0.09633912
75	0x3dc50f5a	0.09622069
76	0x3e02462a	0.12722078
77	0x3dcc1755	0.09965388
78	0x3dce94d6	0.10086982
79	0x3dd43974	0.10362521
80	0x3de0e022	0.1098025
81	0x3db84c9d	0.08998988
82	0x3dceb185	0.10092453
83	0x3db3775a	0.08762999
84	0x3df2e787	0.118605666
85	0x3dcc57b6	0.09977667
86	0x3dc5d25e	0.09659265
87	0x3dbe542b	0.092933975
88	0x3dd7ea57	0.10542744
89	0x3db15f11	0.086607106
90	0x3de4ab5d	0.111654975
91	0x3dc9d652	0.098553315
92	0x3de44fa4	0.11148003
93	0x3df1ab43	0.11800244
94	0x3db20e0a	0.08694084
95	0x3dd34462	0.10315777
96	0x3dcde8b7	0.100541525
97	0x3dcea1d9	0.10089464
98	0x3dc08fd1	0.09402431
99	0x3de1ccdd	0.11025403
100	0x3dda7922	0.106676355
101	0x3ddf5f58	0.10906857
102	0x3e042562	0.12904885
103	0x3ddee990	0.10884392
104	0x3dd3956f	0.103312366
105	0x3de3ce0a	0.11123283
106	0x3dae3529	0.08506233
107	0x3dd4d5c8	0.10392338
108	0x3de18dc7	0.1101337
109	0x3dbd9d3f	0.09258508
110	0x3db3f1bb	0.08786341
111	0x3dca23d6	0.098701164
112	0x3dc73e47	0.09728675
113	0x3dc9f203	0.09860613
114	0x3da25676	0.07926647
115	0x3dd529cc	0.10408363
116	0x3e046287	0.1292821
117	0x3db2f2d5	0.08737723
118	0x3db808b3	0.08986034
119	0x3dae6a26	0.0851634
120	0x3dea2b2d	0.114340164
121	0x3ddeb2fb	0.108739816
122	0x3de9b9a8	0.11412364
123	0x3ddabcde	0.10680555
124	0x3dc1ec1a	0.09468861
125	0x3dd32c25	0.10311154
126	0x3dd65b75	0.10466663
127	0x3da4e73d	0.08051918
